{
  "nodes": [
    {
      "op": "null", 
      "name": "data", 
      "inputs": []
    }, 
    {
      "op": "null", 
      "name": "convolution0_weight", 
      "attrs": {
        "kernel": "(3, 3)", 
        "num_filter": "24", 
        "pad": "(1, 1)", 
        "stride": "(2, 2)"
      }, 
      "inputs": []
    }, 
    {
      "op": "null", 
      "name": "convolution0_bias", 
      "attrs": {
        "kernel": "(3, 3)", 
        "num_filter": "24", 
        "pad": "(1, 1)", 
        "stride": "(2, 2)"
      }, 
      "inputs": []
    }, 
    {
      "op": "Convolution", 
      "name": "convolution0", 
      "attrs": {
        "kernel": "(3, 3)", 
        "num_filter": "24", 
        "pad": "(1, 1)", 
        "stride": "(2, 2)"
      }, 
      "inputs": [[0, 0, 0], [1, 0, 0], [2, 0, 0]]
    }, 
    {
      "op": "Pooling", 
      "name": "pooling0", 
      "attrs": {
        "kernel": "(3, 3)", 
        "pad": "(1, 1)", 
        "pool_type": "max", 
        "stride": "(2, 2)"
      }, 
      "inputs": [[3, 0, 0]]
    }, 
    {
      "op": "null", 
      "name": "convolution4_weight", 
      "attrs": {
        "kernel": "(3, 3)", 
        "num_filter": "24", 
        "num_group": "24", 
        "pad": "(1, 1)", 
        "stride": "(2, 2)"
      }, 
      "inputs": []
    }, 
    {
      "op": "null", 
      "name": "convolution4_bias", 
      "attrs": {
        "kernel": "(3, 3)", 
        "num_filter": "24", 
        "num_group": "24", 
        "pad": "(1, 1)", 
        "stride": "(2, 2)"
      }, 
      "inputs": []
    }, 
    {
      "op": "Convolution", 
      "name": "convolution4", 
      "attrs": {
        "kernel": "(3, 3)", 
        "num_filter": "24", 
        "num_group": "24", 
        "pad": "(1, 1)", 
        "stride": "(2, 2)"
      }, 
      "inputs": [[4, 0, 0], [5, 0, 0], [6, 0, 0]]
    }, 
    {
      "op": "null", 
      "name": "batchnorm3_gamma", 
      "inputs": []
    }, 
    {
      "op": "null", 
      "name": "batchnorm3_beta", 
      "inputs": []
    }, 
    {
      "op": "null", 
      "name": "batchnorm3_moving_mean", 
      "attrs": {"__init__": "[\"zero\", {}]"}, 
      "inputs": []
    }, 
    {
      "op": "null", 
      "name": "batchnorm3_moving_var", 
      "attrs": {"__init__": "[\"one\", {}]"}, 
      "inputs": []
    }, 
    {
      "op": "BatchNorm", 
      "name": "batchnorm3", 
      "inputs": [[7, 0, 0], [8, 0, 0], [9, 0, 0], [10, 0, 1], [11, 0, 1]]
    }, 
    {
      "op": "null", 
      "name": "convolution5_weight", 
      "attrs": {
        "kernel": "(1, 1)", 
        "num_filter": "122", 
        "stride": "(1, 1)"
      }, 
      "inputs": []
    }, 
    {
      "op": "null", 
      "name": "convolution5_bias", 
      "attrs": {
        "kernel": "(1, 1)", 
        "num_filter": "122", 
        "stride": "(1, 1)"
      }, 
      "inputs": []
    }, 
    {
      "op": "Convolution", 
      "name": "convolution5", 
      "attrs": {
        "kernel": "(1, 1)", 
        "num_filter": "122", 
        "stride": "(1, 1)"
      }, 
      "inputs": [[12, 0, 0], [13, 0, 0], [14, 0, 0]]
    }, 
    {
      "op": "null", 
      "name": "batchnorm4_gamma", 
      "inputs": []
    }, 
    {
      "op": "null", 
      "name": "batchnorm4_beta", 
      "inputs": []
    }, 
    {
      "op": "null", 
      "name": "batchnorm4_moving_mean", 
      "attrs": {"__init__": "[\"zero\", {}]"}, 
      "inputs": []
    }, 
    {
      "op": "null", 
      "name": "batchnorm4_moving_var", 
      "attrs": {"__init__": "[\"one\", {}]"}, 
      "inputs": []
    }, 
    {
      "op": "BatchNorm", 
      "name": "batchnorm4", 
      "inputs": [[15, 0, 0], [16, 0, 0], [17, 0, 0], [18, 0, 1], [19, 0, 1]]
    }, 
    {
      "op": "Activation", 
      "name": "activation2", 
      "attrs": {"act_type": "relu"}, 
      "inputs": [[20, 0, 0]]
    }, 
    {
      "op": "null", 
      "name": "convolution1_weight", 
      "attrs": {
        "kernel": "(1, 1)", 
        "num_filter": "122", 
        "stride": "(1, 1)"
      }, 
      "inputs": []
    }, 
    {
      "op": "null", 
      "name": "convolution1_bias", 
      "attrs": {
        "kernel": "(1, 1)", 
        "num_filter": "122", 
        "stride": "(1, 1)"
      }, 
      "inputs": []
    }, 
    {
      "op": "Convolution", 
      "name": "convolution1", 
      "attrs": {
        "kernel": "(1, 1)", 
        "num_filter": "122", 
        "stride": "(1, 1)"
      }, 
      "inputs": [[4, 0, 0], [22, 0, 0], [23, 0, 0]]
    }, 
    {
      "op": "null", 
      "name": "batchnorm0_gamma", 
      "inputs": []
    }, 
    {
      "op": "null", 
      "name": "batchnorm0_beta", 
      "inputs": []
    }, 
    {
      "op": "null", 
      "name": "batchnorm0_moving_mean", 
      "attrs": {"__init__": "[\"zero\", {}]"}, 
      "inputs": []
    }, 
    {
      "op": "null", 
      "name": "batchnorm0_moving_var", 
      "attrs": {"__init__": "[\"one\", {}]"}, 
      "inputs": []
    }, 
    {
      "op": "BatchNorm", 
      "name": "batchnorm0", 
      "inputs": [[24, 0, 0], [25, 0, 0], [26, 0, 0], [27, 0, 1], [28, 0, 1]]
    }, 
    {
      "op": "Activation", 
      "name": "activation0", 
      "attrs": {"act_type": "relu"}, 
      "inputs": [[29, 0, 0]]
    }, 
    {
      "op": "null", 
      "name": "convolution2_weight", 
      "attrs": {
        "kernel": "(3, 3)", 
        "num_filter": "122", 
        "num_group": "122", 
        "pad": "(1, 1)", 
        "stride": "(2, 2)"
      }, 
      "inputs": []
    }, 
    {
      "op": "null", 
      "name": "convolution2_bias", 
      "attrs": {
        "kernel": "(3, 3)", 
        "num_filter": "122", 
        "num_group": "122", 
        "pad": "(1, 1)", 
        "stride": "(2, 2)"
      }, 
      "inputs": []
    }, 
    {
      "op": "Convolution", 
      "name": "convolution2", 
      "attrs": {
        "kernel": "(3, 3)", 
        "num_filter": "122", 
        "num_group": "122", 
        "pad": "(1, 1)", 
        "stride": "(2, 2)"
      }, 
      "inputs": [[30, 0, 0], [31, 0, 0], [32, 0, 0]]
    }, 
    {
      "op": "null", 
      "name": "batchnorm1_gamma", 
      "inputs": []
    }, 
    {
      "op": "null", 
      "name": "batchnorm1_beta", 
      "inputs": []
    }, 
    {
      "op": "null", 
      "name": "batchnorm1_moving_mean", 
      "attrs": {"__init__": "[\"zero\", {}]"}, 
      "inputs": []
    }, 
    {
      "op": "null", 
      "name": "batchnorm1_moving_var", 
      "attrs": {"__init__": "[\"one\", {}]"}, 
      "inputs": []
    }, 
    {
      "op": "BatchNorm", 
      "name": "batchnorm1", 
      "inputs": [[33, 0, 0], [34, 0, 0], [35, 0, 0], [36, 0, 1], [37, 0, 1]]
    }, 
    {
      "op": "null", 
      "name": "convolution3_weight", 
      "attrs": {
        "kernel": "(1, 1)", 
        "num_filter": "122", 
        "stride": "(1, 1)"
      }, 
      "inputs": []
    }, 
    {
      "op": "null", 
      "name": "convolution3_bias", 
      "attrs": {
        "kernel": "(1, 1)", 
        "num_filter": "122", 
        "stride": "(1, 1)"
      }, 
      "inputs": []
    }, 
    {
      "op": "Convolution", 
      "name": "convolution3", 
      "attrs": {
        "kernel": "(1, 1)", 
        "num_filter": "122", 
        "stride": "(1, 1)"
      }, 
      "inputs": [[38, 0, 0], [39, 0, 0], [40, 0, 0]]
    }, 
    {
      "op": "null", 
      "name": "batchnorm2_gamma", 
      "inputs": []
    }, 
    {
      "op": "null", 
      "name": "batchnorm2_beta", 
      "inputs": []
    }, 
    {
      "op": "null", 
      "name": "batchnorm2_moving_mean", 
      "attrs": {"__init__": "[\"zero\", {}]"}, 
      "inputs": []
    }, 
    {
      "op": "null", 
      "name": "batchnorm2_moving_var", 
      "attrs": {"__init__": "[\"one\", {}]"}, 
      "inputs": []
    }, 
    {
      "op": "BatchNorm", 
      "name": "batchnorm2", 
      "inputs": [[41, 0, 0], [42, 0, 0], [43, 0, 0], [44, 0, 1], [45, 0, 1]]
    }, 
    {
      "op": "Activation", 
      "name": "activation1", 
      "attrs": {"act_type": "relu"}, 
      "inputs": [[46, 0, 0]]
    }, 
    {
      "op": "Concat", 
      "name": "concat0", 
      "attrs": {
        "dim": "1", 
        "num_args": "2"
      }, 
      "inputs": [[21, 0, 0], [47, 0, 0]]
    }, 
    {
      "op": "Reshape", 
      "name": "reshape0", 
      "attrs": {"shape": "(0, -4, 2, -1, -2)"}, 
      "inputs": [[48, 0, 0]]
    }, 
    {
      "op": "SwapAxis", 
      "name": "swapaxes0", 
      "attrs": {
        "dim1": "1", 
        "dim2": "2"
      }, 
      "inputs": [[49, 0, 0]]
    }, 
    {
      "op": "Reshape", 
      "name": "reshape1", 
      "attrs": {"shape": "(0, -3, -2)"}, 
      "inputs": [[50, 0, 0]]
    }, 
    {
      "op": "SliceChannel", 
      "name": "split0", 
      "attrs": {
        "axis": "1", 
        "num_outputs": "2"
      }, 
      "inputs": [[51, 0, 0]]
    }, 
    {
      "op": "null", 
      "name": "convolution6_weight", 
      "attrs": {
        "kernel": "(1, 1)", 
        "num_filter": "122", 
        "stride": "(1, 1)"
      }, 
      "inputs": []
    }, 
    {
      "op": "null", 
      "name": "convolution6_bias", 
      "attrs": {
        "kernel": "(1, 1)", 
        "num_filter": "122", 
        "stride": "(1, 1)"
      }, 
      "inputs": []
    }, 
    {
      "op": "Convolution", 
      "name": "convolution6", 
      "attrs": {
        "kernel": "(1, 1)", 
        "num_filter": "122", 
        "stride": "(1, 1)"
      }, 
      "inputs": [[52, 1, 0], [53, 0, 0], [54, 0, 0]]
    }, 
    {
      "op": "null", 
      "name": "batchnorm5_gamma", 
      "inputs": []
    }, 
    {
      "op": "null", 
      "name": "batchnorm5_beta", 
      "inputs": []
    }, 
    {
      "op": "null", 
      "name": "batchnorm5_moving_mean", 
      "attrs": {"__init__": "[\"zero\", {}]"}, 
      "inputs": []
    }, 
    {
      "op": "null", 
      "name": "batchnorm5_moving_var", 
      "attrs": {"__init__": "[\"one\", {}]"}, 
      "inputs": []
    }, 
    {
      "op": "BatchNorm", 
      "name": "batchnorm5", 
      "inputs": [[55, 0, 0], [56, 0, 0], [57, 0, 0], [58, 0, 1], [59, 0, 1]]
    }, 
    {
      "op": "Activation", 
      "name": "activation3", 
      "attrs": {"act_type": "relu"}, 
      "inputs": [[60, 0, 0]]
    }, 
    {
      "op": "null", 
      "name": "convolution7_weight", 
      "attrs": {
        "kernel": "(3, 3)", 
        "num_filter": "122", 
        "num_group": "122", 
        "pad": "(1, 1)", 
        "stride": "(1, 1)"
      }, 
      "inputs": []
    }, 
    {
      "op": "null", 
      "name": "convolution7_bias", 
      "attrs": {
        "kernel": "(3, 3)", 
        "num_filter": "122", 
        "num_group": "122", 
        "pad": "(1, 1)", 
        "stride": "(1, 1)"
      }, 
      "inputs": []
    }, 
    {
      "op": "Convolution", 
      "name": "convolution7", 
      "attrs": {
        "kernel": "(3, 3)", 
        "num_filter": "122", 
        "num_group": "122", 
        "pad": "(1, 1)", 
        "stride": "(1, 1)"
      }, 
      "inputs": [[61, 0, 0], [62, 0, 0], [63, 0, 0]]
    }, 
    {
      "op": "null", 
      "name": "batchnorm6_gamma", 
      "inputs": []
    }, 
    {
      "op": "null", 
      "name": "batchnorm6_beta", 
      "inputs": []
    }, 
    {
      "op": "null", 
      "name": "batchnorm6_moving_mean", 
      "attrs": {"__init__": "[\"zero\", {}]"}, 
      "inputs": []
    }, 
    {
      "op": "null", 
      "name": "batchnorm6_moving_var", 
      "attrs": {"__init__": "[\"one\", {}]"}, 
      "inputs": []
    }, 
    {
      "op": "BatchNorm", 
      "name": "batchnorm6", 
      "inputs": [[64, 0, 0], [65, 0, 0], [66, 0, 0], [67, 0, 1], [68, 0, 1]]
    }, 
    {
      "op": "null", 
      "name": "convolution8_weight", 
      "attrs": {
        "kernel": "(1, 1)", 
        "num_filter": "122", 
        "stride": "(1, 1)"
      }, 
      "inputs": []
    }, 
    {
      "op": "null", 
      "name": "convolution8_bias", 
      "attrs": {
        "kernel": "(1, 1)", 
        "num_filter": "122", 
        "stride": "(1, 1)"
      }, 
      "inputs": []
    }, 
    {
      "op": "Convolution", 
      "name": "convolution8", 
      "attrs": {
        "kernel": "(1, 1)", 
        "num_filter": "122", 
        "stride": "(1, 1)"
      }, 
      "inputs": [[69, 0, 0], [70, 0, 0], [71, 0, 0]]
    }, 
    {
      "op": "null", 
      "name": "batchnorm7_gamma", 
      "inputs": []
    }, 
    {
      "op": "null", 
      "name": "batchnorm7_beta", 
      "inputs": []
    }, 
    {
      "op": "null", 
      "name": "batchnorm7_moving_mean", 
      "attrs": {"__init__": "[\"zero\", {}]"}, 
      "inputs": []
    }, 
    {
      "op": "null", 
      "name": "batchnorm7_moving_var", 
      "attrs": {"__init__": "[\"one\", {}]"}, 
      "inputs": []
    }, 
    {
      "op": "BatchNorm", 
      "name": "batchnorm7", 
      "inputs": [[72, 0, 0], [73, 0, 0], [74, 0, 0], [75, 0, 1], [76, 0, 1]]
    }, 
    {
      "op": "Activation", 
      "name": "activation4", 
      "attrs": {"act_type": "relu"}, 
      "inputs": [[77, 0, 0]]
    }, 
    {
      "op": "Concat", 
      "name": "concat1", 
      "attrs": {
        "dim": "1", 
        "num_args": "2"
      }, 
      "inputs": [[52, 0, 0], [78, 0, 0]]
    }, 
    {
      "op": "Reshape", 
      "name": "reshape2", 
      "attrs": {"shape": "(0, -4, 2, -1, -2)"}, 
      "inputs": [[79, 0, 0]]
    }, 
    {
      "op": "SwapAxis", 
      "name": "swapaxes1", 
      "attrs": {
        "dim1": "1", 
        "dim2": "2"
      }, 
      "inputs": [[80, 0, 0]]
    }, 
    {
      "op": "Reshape", 
      "name": "reshape3", 
      "attrs": {"shape": "(0, -3, -2)"}, 
      "inputs": [[81, 0, 0]]
    }, 
    {
      "op": "SliceChannel", 
      "name": "split1", 
      "attrs": {
        "axis": "1", 
        "num_outputs": "2"
      }, 
      "inputs": [[82, 0, 0]]
    }, 
    {
      "op": "null", 
      "name": "convolution9_weight", 
      "attrs": {
        "kernel": "(1, 1)", 
        "num_filter": "122", 
        "stride": "(1, 1)"
      }, 
      "inputs": []
    }, 
    {
      "op": "null", 
      "name": "convolution9_bias", 
      "attrs": {
        "kernel": "(1, 1)", 
        "num_filter": "122", 
        "stride": "(1, 1)"
      }, 
      "inputs": []
    }, 
    {
      "op": "Convolution", 
      "name": "convolution9", 
      "attrs": {
        "kernel": "(1, 1)", 
        "num_filter": "122", 
        "stride": "(1, 1)"
      }, 
      "inputs": [[83, 1, 0], [84, 0, 0], [85, 0, 0]]
    }, 
    {
      "op": "null", 
      "name": "batchnorm8_gamma", 
      "inputs": []
    }, 
    {
      "op": "null", 
      "name": "batchnorm8_beta", 
      "inputs": []
    }, 
    {
      "op": "null", 
      "name": "batchnorm8_moving_mean", 
      "attrs": {"__init__": "[\"zero\", {}]"}, 
      "inputs": []
    }, 
    {
      "op": "null", 
      "name": "batchnorm8_moving_var", 
      "attrs": {"__init__": "[\"one\", {}]"}, 
      "inputs": []
    }, 
    {
      "op": "BatchNorm", 
      "name": "batchnorm8", 
      "inputs": [[86, 0, 0], [87, 0, 0], [88, 0, 0], [89, 0, 1], [90, 0, 1]]
    }, 
    {
      "op": "Activation", 
      "name": "activation5", 
      "attrs": {"act_type": "relu"}, 
      "inputs": [[91, 0, 0]]
    }, 
    {
      "op": "null", 
      "name": "convolution10_weight", 
      "attrs": {
        "kernel": "(3, 3)", 
        "num_filter": "122", 
        "num_group": "122", 
        "pad": "(1, 1)", 
        "stride": "(1, 1)"
      }, 
      "inputs": []
    }, 
    {
      "op": "null", 
      "name": "convolution10_bias", 
      "attrs": {
        "kernel": "(3, 3)", 
        "num_filter": "122", 
        "num_group": "122", 
        "pad": "(1, 1)", 
        "stride": "(1, 1)"
      }, 
      "inputs": []
    }, 
    {
      "op": "Convolution", 
      "name": "convolution10", 
      "attrs": {
        "kernel": "(3, 3)", 
        "num_filter": "122", 
        "num_group": "122", 
        "pad": "(1, 1)", 
        "stride": "(1, 1)"
      }, 
      "inputs": [[92, 0, 0], [93, 0, 0], [94, 0, 0]]
    }, 
    {
      "op": "null", 
      "name": "batchnorm9_gamma", 
      "inputs": []
    }, 
    {
      "op": "null", 
      "name": "batchnorm9_beta", 
      "inputs": []
    }, 
    {
      "op": "null", 
      "name": "batchnorm9_moving_mean", 
      "attrs": {"__init__": "[\"zero\", {}]"}, 
      "inputs": []
    }, 
    {
      "op": "null", 
      "name": "batchnorm9_moving_var", 
      "attrs": {"__init__": "[\"one\", {}]"}, 
      "inputs": []
    }, 
    {
      "op": "BatchNorm", 
      "name": "batchnorm9", 
      "inputs": [[95, 0, 0], [96, 0, 0], [97, 0, 0], [98, 0, 1], [99, 0, 1]]
    }, 
    {
      "op": "null", 
      "name": "convolution11_weight", 
      "attrs": {
        "kernel": "(1, 1)", 
        "num_filter": "122", 
        "stride": "(1, 1)"
      }, 
      "inputs": []
    }, 
    {
      "op": "null", 
      "name": "convolution11_bias", 
      "attrs": {
        "kernel": "(1, 1)", 
        "num_filter": "122", 
        "stride": "(1, 1)"
      }, 
      "inputs": []
    }, 
    {
      "op": "Convolution", 
      "name": "convolution11", 
      "attrs": {
        "kernel": "(1, 1)", 
        "num_filter": "122", 
        "stride": "(1, 1)"
      }, 
      "inputs": [[100, 0, 0], [101, 0, 0], [102, 0, 0]]
    }, 
    {
      "op": "null", 
      "name": "batchnorm10_gamma", 
      "inputs": []
    }, 
    {
      "op": "null", 
      "name": "batchnorm10_beta", 
      "inputs": []
    }, 
    {
      "op": "null", 
      "name": "batchnorm10_moving_mean", 
      "attrs": {"__init__": "[\"zero\", {}]"}, 
      "inputs": []
    }, 
    {
      "op": "null", 
      "name": "batchnorm10_moving_var", 
      "attrs": {"__init__": "[\"one\", {}]"}, 
      "inputs": []
    }, 
    {
      "op": "BatchNorm", 
      "name": "batchnorm10", 
      "inputs": [[103, 0, 0], [104, 0, 0], [105, 0, 0], [106, 0, 1], [107, 0, 1]]
    }, 
    {
      "op": "Activation", 
      "name": "activation6", 
      "attrs": {"act_type": "relu"}, 
      "inputs": [[108, 0, 0]]
    }, 
    {
      "op": "Concat", 
      "name": "concat2", 
      "attrs": {
        "dim": "1", 
        "num_args": "2"
      }, 
      "inputs": [[83, 0, 0], [109, 0, 0]]
    }, 
    {
      "op": "Reshape", 
      "name": "reshape4", 
      "attrs": {"shape": "(0, -4, 2, -1, -2)"}, 
      "inputs": [[110, 0, 0]]
    }, 
    {
      "op": "SwapAxis", 
      "name": "swapaxes2", 
      "attrs": {
        "dim1": "1", 
        "dim2": "2"
      }, 
      "inputs": [[111, 0, 0]]
    }, 
    {
      "op": "Reshape", 
      "name": "reshape5", 
      "attrs": {"shape": "(0, -3, -2)"}, 
      "inputs": [[112, 0, 0]]
    }, 
    {
      "op": "SliceChannel", 
      "name": "split2", 
      "attrs": {
        "axis": "1", 
        "num_outputs": "2"
      }, 
      "inputs": [[113, 0, 0]]
    }, 
    {
      "op": "null", 
      "name": "convolution12_weight", 
      "attrs": {
        "kernel": "(1, 1)", 
        "num_filter": "122", 
        "stride": "(1, 1)"
      }, 
      "inputs": []
    }, 
    {
      "op": "null", 
      "name": "convolution12_bias", 
      "attrs": {
        "kernel": "(1, 1)", 
        "num_filter": "122", 
        "stride": "(1, 1)"
      }, 
      "inputs": []
    }, 
    {
      "op": "Convolution", 
      "name": "convolution12", 
      "attrs": {
        "kernel": "(1, 1)", 
        "num_filter": "122", 
        "stride": "(1, 1)"
      }, 
      "inputs": [[114, 1, 0], [115, 0, 0], [116, 0, 0]]
    }, 
    {
      "op": "null", 
      "name": "batchnorm11_gamma", 
      "inputs": []
    }, 
    {
      "op": "null", 
      "name": "batchnorm11_beta", 
      "inputs": []
    }, 
    {
      "op": "null", 
      "name": "batchnorm11_moving_mean", 
      "attrs": {"__init__": "[\"zero\", {}]"}, 
      "inputs": []
    }, 
    {
      "op": "null", 
      "name": "batchnorm11_moving_var", 
      "attrs": {"__init__": "[\"one\", {}]"}, 
      "inputs": []
    }, 
    {
      "op": "BatchNorm", 
      "name": "batchnorm11", 
      "inputs": [[117, 0, 0], [118, 0, 0], [119, 0, 0], [120, 0, 1], [121, 0, 1]]
    }, 
    {
      "op": "Activation", 
      "name": "activation7", 
      "attrs": {"act_type": "relu"}, 
      "inputs": [[122, 0, 0]]
    }, 
    {
      "op": "null", 
      "name": "convolution13_weight", 
      "attrs": {
        "kernel": "(3, 3)", 
        "num_filter": "122", 
        "num_group": "122", 
        "pad": "(1, 1)", 
        "stride": "(1, 1)"
      }, 
      "inputs": []
    }, 
    {
      "op": "null", 
      "name": "convolution13_bias", 
      "attrs": {
        "kernel": "(3, 3)", 
        "num_filter": "122", 
        "num_group": "122", 
        "pad": "(1, 1)", 
        "stride": "(1, 1)"
      }, 
      "inputs": []
    }, 
    {
      "op": "Convolution", 
      "name": "convolution13", 
      "attrs": {
        "kernel": "(3, 3)", 
        "num_filter": "122", 
        "num_group": "122", 
        "pad": "(1, 1)", 
        "stride": "(1, 1)"
      }, 
      "inputs": [[123, 0, 0], [124, 0, 0], [125, 0, 0]]
    }, 
    {
      "op": "null", 
      "name": "batchnorm12_gamma", 
      "inputs": []
    }, 
    {
      "op": "null", 
      "name": "batchnorm12_beta", 
      "inputs": []
    }, 
    {
      "op": "null", 
      "name": "batchnorm12_moving_mean", 
      "attrs": {"__init__": "[\"zero\", {}]"}, 
      "inputs": []
    }, 
    {
      "op": "null", 
      "name": "batchnorm12_moving_var", 
      "attrs": {"__init__": "[\"one\", {}]"}, 
      "inputs": []
    }, 
    {
      "op": "BatchNorm", 
      "name": "batchnorm12", 
      "inputs": [[126, 0, 0], [127, 0, 0], [128, 0, 0], [129, 0, 1], [130, 0, 1]]
    }, 
    {
      "op": "null", 
      "name": "convolution14_weight", 
      "attrs": {
        "kernel": "(1, 1)", 
        "num_filter": "122", 
        "stride": "(1, 1)"
      }, 
      "inputs": []
    }, 
    {
      "op": "null", 
      "name": "convolution14_bias", 
      "attrs": {
        "kernel": "(1, 1)", 
        "num_filter": "122", 
        "stride": "(1, 1)"
      }, 
      "inputs": []
    }, 
    {
      "op": "Convolution", 
      "name": "convolution14", 
      "attrs": {
        "kernel": "(1, 1)", 
        "num_filter": "122", 
        "stride": "(1, 1)"
      }, 
      "inputs": [[131, 0, 0], [132, 0, 0], [133, 0, 0]]
    }, 
    {
      "op": "null", 
      "name": "batchnorm13_gamma", 
      "inputs": []
    }, 
    {
      "op": "null", 
      "name": "batchnorm13_beta", 
      "inputs": []
    }, 
    {
      "op": "null", 
      "name": "batchnorm13_moving_mean", 
      "attrs": {"__init__": "[\"zero\", {}]"}, 
      "inputs": []
    }, 
    {
      "op": "null", 
      "name": "batchnorm13_moving_var", 
      "attrs": {"__init__": "[\"one\", {}]"}, 
      "inputs": []
    }, 
    {
      "op": "BatchNorm", 
      "name": "batchnorm13", 
      "inputs": [[134, 0, 0], [135, 0, 0], [136, 0, 0], [137, 0, 1], [138, 0, 1]]
    }, 
    {
      "op": "Activation", 
      "name": "activation8", 
      "attrs": {"act_type": "relu"}, 
      "inputs": [[139, 0, 0]]
    }, 
    {
      "op": "Concat", 
      "name": "concat3", 
      "attrs": {
        "dim": "1", 
        "num_args": "2"
      }, 
      "inputs": [[114, 0, 0], [140, 0, 0]]
    }, 
    {
      "op": "Reshape", 
      "name": "reshape6", 
      "attrs": {"shape": "(0, -4, 2, -1, -2)"}, 
      "inputs": [[141, 0, 0]]
    }, 
    {
      "op": "SwapAxis", 
      "name": "swapaxes3", 
      "attrs": {
        "dim1": "1", 
        "dim2": "2"
      }, 
      "inputs": [[142, 0, 0]]
    }, 
    {
      "op": "Reshape", 
      "name": "reshape7", 
      "attrs": {"shape": "(0, -3, -2)"}, 
      "inputs": [[143, 0, 0]]
    }, 
    {
      "op": "null", 
      "name": "convolution18_weight", 
      "attrs": {
        "kernel": "(3, 3)", 
        "num_filter": "244", 
        "num_group": "244", 
        "pad": "(1, 1)", 
        "stride": "(2, 2)"
      }, 
      "inputs": []
    }, 
    {
      "op": "null", 
      "name": "convolution18_bias", 
      "attrs": {
        "kernel": "(3, 3)", 
        "num_filter": "244", 
        "num_group": "244", 
        "pad": "(1, 1)", 
        "stride": "(2, 2)"
      }, 
      "inputs": []
    }, 
    {
      "op": "Convolution", 
      "name": "convolution18", 
      "attrs": {
        "kernel": "(3, 3)", 
        "num_filter": "244", 
        "num_group": "244", 
        "pad": "(1, 1)", 
        "stride": "(2, 2)"
      }, 
      "inputs": [[144, 0, 0], [145, 0, 0], [146, 0, 0]]
    }, 
    {
      "op": "null", 
      "name": "batchnorm17_gamma", 
      "inputs": []
    }, 
    {
      "op": "null", 
      "name": "batchnorm17_beta", 
      "inputs": []
    }, 
    {
      "op": "null", 
      "name": "batchnorm17_moving_mean", 
      "attrs": {"__init__": "[\"zero\", {}]"}, 
      "inputs": []
    }, 
    {
      "op": "null", 
      "name": "batchnorm17_moving_var", 
      "attrs": {"__init__": "[\"one\", {}]"}, 
      "inputs": []
    }, 
    {
      "op": "BatchNorm", 
      "name": "batchnorm17", 
      "inputs": [[147, 0, 0], [148, 0, 0], [149, 0, 0], [150, 0, 1], [151, 0, 1]]
    }, 
    {
      "op": "null", 
      "name": "convolution19_weight", 
      "attrs": {
        "kernel": "(1, 1)", 
        "num_filter": "244", 
        "stride": "(1, 1)"
      }, 
      "inputs": []
    }, 
    {
      "op": "null", 
      "name": "convolution19_bias", 
      "attrs": {
        "kernel": "(1, 1)", 
        "num_filter": "244", 
        "stride": "(1, 1)"
      }, 
      "inputs": []
    }, 
    {
      "op": "Convolution", 
      "name": "convolution19", 
      "attrs": {
        "kernel": "(1, 1)", 
        "num_filter": "244", 
        "stride": "(1, 1)"
      }, 
      "inputs": [[152, 0, 0], [153, 0, 0], [154, 0, 0]]
    }, 
    {
      "op": "null", 
      "name": "batchnorm18_gamma", 
      "inputs": []
    }, 
    {
      "op": "null", 
      "name": "batchnorm18_beta", 
      "inputs": []
    }, 
    {
      "op": "null", 
      "name": "batchnorm18_moving_mean", 
      "attrs": {"__init__": "[\"zero\", {}]"}, 
      "inputs": []
    }, 
    {
      "op": "null", 
      "name": "batchnorm18_moving_var", 
      "attrs": {"__init__": "[\"one\", {}]"}, 
      "inputs": []
    }, 
    {
      "op": "BatchNorm", 
      "name": "batchnorm18", 
      "inputs": [[155, 0, 0], [156, 0, 0], [157, 0, 0], [158, 0, 1], [159, 0, 1]]
    }, 
    {
      "op": "Activation", 
      "name": "activation11", 
      "attrs": {"act_type": "relu"}, 
      "inputs": [[160, 0, 0]]
    }, 
    {
      "op": "null", 
      "name": "convolution15_weight", 
      "attrs": {
        "kernel": "(1, 1)", 
        "num_filter": "244", 
        "stride": "(1, 1)"
      }, 
      "inputs": []
    }, 
    {
      "op": "null", 
      "name": "convolution15_bias", 
      "attrs": {
        "kernel": "(1, 1)", 
        "num_filter": "244", 
        "stride": "(1, 1)"
      }, 
      "inputs": []
    }, 
    {
      "op": "Convolution", 
      "name": "convolution15", 
      "attrs": {
        "kernel": "(1, 1)", 
        "num_filter": "244", 
        "stride": "(1, 1)"
      }, 
      "inputs": [[144, 0, 0], [162, 0, 0], [163, 0, 0]]
    }, 
    {
      "op": "null", 
      "name": "batchnorm14_gamma", 
      "inputs": []
    }, 
    {
      "op": "null", 
      "name": "batchnorm14_beta", 
      "inputs": []
    }, 
    {
      "op": "null", 
      "name": "batchnorm14_moving_mean", 
      "attrs": {"__init__": "[\"zero\", {}]"}, 
      "inputs": []
    }, 
    {
      "op": "null", 
      "name": "batchnorm14_moving_var", 
      "attrs": {"__init__": "[\"one\", {}]"}, 
      "inputs": []
    }, 
    {
      "op": "BatchNorm", 
      "name": "batchnorm14", 
      "inputs": [[164, 0, 0], [165, 0, 0], [166, 0, 0], [167, 0, 1], [168, 0, 1]]
    }, 
    {
      "op": "Activation", 
      "name": "activation9", 
      "attrs": {"act_type": "relu"}, 
      "inputs": [[169, 0, 0]]
    }, 
    {
      "op": "null", 
      "name": "convolution16_weight", 
      "attrs": {
        "kernel": "(3, 3)", 
        "num_filter": "244", 
        "num_group": "244", 
        "pad": "(1, 1)", 
        "stride": "(2, 2)"
      }, 
      "inputs": []
    }, 
    {
      "op": "null", 
      "name": "convolution16_bias", 
      "attrs": {
        "kernel": "(3, 3)", 
        "num_filter": "244", 
        "num_group": "244", 
        "pad": "(1, 1)", 
        "stride": "(2, 2)"
      }, 
      "inputs": []
    }, 
    {
      "op": "Convolution", 
      "name": "convolution16", 
      "attrs": {
        "kernel": "(3, 3)", 
        "num_filter": "244", 
        "num_group": "244", 
        "pad": "(1, 1)", 
        "stride": "(2, 2)"
      }, 
      "inputs": [[170, 0, 0], [171, 0, 0], [172, 0, 0]]
    }, 
    {
      "op": "null", 
      "name": "batchnorm15_gamma", 
      "inputs": []
    }, 
    {
      "op": "null", 
      "name": "batchnorm15_beta", 
      "inputs": []
    }, 
    {
      "op": "null", 
      "name": "batchnorm15_moving_mean", 
      "attrs": {"__init__": "[\"zero\", {}]"}, 
      "inputs": []
    }, 
    {
      "op": "null", 
      "name": "batchnorm15_moving_var", 
      "attrs": {"__init__": "[\"one\", {}]"}, 
      "inputs": []
    }, 
    {
      "op": "BatchNorm", 
      "name": "batchnorm15", 
      "inputs": [[173, 0, 0], [174, 0, 0], [175, 0, 0], [176, 0, 1], [177, 0, 1]]
    }, 
    {
      "op": "null", 
      "name": "convolution17_weight", 
      "attrs": {
        "kernel": "(1, 1)", 
        "num_filter": "244", 
        "stride": "(1, 1)"
      }, 
      "inputs": []
    }, 
    {
      "op": "null", 
      "name": "convolution17_bias", 
      "attrs": {
        "kernel": "(1, 1)", 
        "num_filter": "244", 
        "stride": "(1, 1)"
      }, 
      "inputs": []
    }, 
    {
      "op": "Convolution", 
      "name": "convolution17", 
      "attrs": {
        "kernel": "(1, 1)", 
        "num_filter": "244", 
        "stride": "(1, 1)"
      }, 
      "inputs": [[178, 0, 0], [179, 0, 0], [180, 0, 0]]
    }, 
    {
      "op": "null", 
      "name": "batchnorm16_gamma", 
      "inputs": []
    }, 
    {
      "op": "null", 
      "name": "batchnorm16_beta", 
      "inputs": []
    }, 
    {
      "op": "null", 
      "name": "batchnorm16_moving_mean", 
      "attrs": {"__init__": "[\"zero\", {}]"}, 
      "inputs": []
    }, 
    {
      "op": "null", 
      "name": "batchnorm16_moving_var", 
      "attrs": {"__init__": "[\"one\", {}]"}, 
      "inputs": []
    }, 
    {
      "op": "BatchNorm", 
      "name": "batchnorm16", 
      "inputs": [[181, 0, 0], [182, 0, 0], [183, 0, 0], [184, 0, 1], [185, 0, 1]]
    }, 
    {
      "op": "Activation", 
      "name": "activation10", 
      "attrs": {"act_type": "relu"}, 
      "inputs": [[186, 0, 0]]
    }, 
    {
      "op": "Concat", 
      "name": "concat4", 
      "attrs": {
        "dim": "1", 
        "num_args": "2"
      }, 
      "inputs": [[161, 0, 0], [187, 0, 0]]
    }, 
    {
      "op": "Reshape", 
      "name": "reshape8", 
      "attrs": {"shape": "(0, -4, 2, -1, -2)"}, 
      "inputs": [[188, 0, 0]]
    }, 
    {
      "op": "SwapAxis", 
      "name": "swapaxes4", 
      "attrs": {
        "dim1": "1", 
        "dim2": "2"
      }, 
      "inputs": [[189, 0, 0]]
    }, 
    {
      "op": "Reshape", 
      "name": "reshape9", 
      "attrs": {"shape": "(0, -3, -2)"}, 
      "inputs": [[190, 0, 0]]
    }, 
    {
      "op": "SliceChannel", 
      "name": "split3", 
      "attrs": {
        "axis": "1", 
        "num_outputs": "2"
      }, 
      "inputs": [[191, 0, 0]]
    }, 
    {
      "op": "null", 
      "name": "convolution20_weight", 
      "attrs": {
        "kernel": "(1, 1)", 
        "num_filter": "244", 
        "stride": "(1, 1)"
      }, 
      "inputs": []
    }, 
    {
      "op": "null", 
      "name": "convolution20_bias", 
      "attrs": {
        "kernel": "(1, 1)", 
        "num_filter": "244", 
        "stride": "(1, 1)"
      }, 
      "inputs": []
    }, 
    {
      "op": "Convolution", 
      "name": "convolution20", 
      "attrs": {
        "kernel": "(1, 1)", 
        "num_filter": "244", 
        "stride": "(1, 1)"
      }, 
      "inputs": [[192, 1, 0], [193, 0, 0], [194, 0, 0]]
    }, 
    {
      "op": "null", 
      "name": "batchnorm19_gamma", 
      "inputs": []
    }, 
    {
      "op": "null", 
      "name": "batchnorm19_beta", 
      "inputs": []
    }, 
    {
      "op": "null", 
      "name": "batchnorm19_moving_mean", 
      "attrs": {"__init__": "[\"zero\", {}]"}, 
      "inputs": []
    }, 
    {
      "op": "null", 
      "name": "batchnorm19_moving_var", 
      "attrs": {"__init__": "[\"one\", {}]"}, 
      "inputs": []
    }, 
    {
      "op": "BatchNorm", 
      "name": "batchnorm19", 
      "inputs": [[195, 0, 0], [196, 0, 0], [197, 0, 0], [198, 0, 1], [199, 0, 1]]
    }, 
    {
      "op": "Activation", 
      "name": "activation12", 
      "attrs": {"act_type": "relu"}, 
      "inputs": [[200, 0, 0]]
    }, 
    {
      "op": "null", 
      "name": "convolution21_weight", 
      "attrs": {
        "kernel": "(3, 3)", 
        "num_filter": "244", 
        "num_group": "244", 
        "pad": "(1, 1)", 
        "stride": "(1, 1)"
      }, 
      "inputs": []
    }, 
    {
      "op": "null", 
      "name": "convolution21_bias", 
      "attrs": {
        "kernel": "(3, 3)", 
        "num_filter": "244", 
        "num_group": "244", 
        "pad": "(1, 1)", 
        "stride": "(1, 1)"
      }, 
      "inputs": []
    }, 
    {
      "op": "Convolution", 
      "name": "convolution21", 
      "attrs": {
        "kernel": "(3, 3)", 
        "num_filter": "244", 
        "num_group": "244", 
        "pad": "(1, 1)", 
        "stride": "(1, 1)"
      }, 
      "inputs": [[201, 0, 0], [202, 0, 0], [203, 0, 0]]
    }, 
    {
      "op": "null", 
      "name": "batchnorm20_gamma", 
      "inputs": []
    }, 
    {
      "op": "null", 
      "name": "batchnorm20_beta", 
      "inputs": []
    }, 
    {
      "op": "null", 
      "name": "batchnorm20_moving_mean", 
      "attrs": {"__init__": "[\"zero\", {}]"}, 
      "inputs": []
    }, 
    {
      "op": "null", 
      "name": "batchnorm20_moving_var", 
      "attrs": {"__init__": "[\"one\", {}]"}, 
      "inputs": []
    }, 
    {
      "op": "BatchNorm", 
      "name": "batchnorm20", 
      "inputs": [[204, 0, 0], [205, 0, 0], [206, 0, 0], [207, 0, 1], [208, 0, 1]]
    }, 
    {
      "op": "null", 
      "name": "convolution22_weight", 
      "attrs": {
        "kernel": "(1, 1)", 
        "num_filter": "244", 
        "stride": "(1, 1)"
      }, 
      "inputs": []
    }, 
    {
      "op": "null", 
      "name": "convolution22_bias", 
      "attrs": {
        "kernel": "(1, 1)", 
        "num_filter": "244", 
        "stride": "(1, 1)"
      }, 
      "inputs": []
    }, 
    {
      "op": "Convolution", 
      "name": "convolution22", 
      "attrs": {
        "kernel": "(1, 1)", 
        "num_filter": "244", 
        "stride": "(1, 1)"
      }, 
      "inputs": [[209, 0, 0], [210, 0, 0], [211, 0, 0]]
    }, 
    {
      "op": "null", 
      "name": "batchnorm21_gamma", 
      "inputs": []
    }, 
    {
      "op": "null", 
      "name": "batchnorm21_beta", 
      "inputs": []
    }, 
    {
      "op": "null", 
      "name": "batchnorm21_moving_mean", 
      "attrs": {"__init__": "[\"zero\", {}]"}, 
      "inputs": []
    }, 
    {
      "op": "null", 
      "name": "batchnorm21_moving_var", 
      "attrs": {"__init__": "[\"one\", {}]"}, 
      "inputs": []
    }, 
    {
      "op": "BatchNorm", 
      "name": "batchnorm21", 
      "inputs": [[212, 0, 0], [213, 0, 0], [214, 0, 0], [215, 0, 1], [216, 0, 1]]
    }, 
    {
      "op": "Activation", 
      "name": "activation13", 
      "attrs": {"act_type": "relu"}, 
      "inputs": [[217, 0, 0]]
    }, 
    {
      "op": "Concat", 
      "name": "concat5", 
      "attrs": {
        "dim": "1", 
        "num_args": "2"
      }, 
      "inputs": [[192, 0, 0], [218, 0, 0]]
    }, 
    {
      "op": "Reshape", 
      "name": "reshape10", 
      "attrs": {"shape": "(0, -4, 2, -1, -2)"}, 
      "inputs": [[219, 0, 0]]
    }, 
    {
      "op": "SwapAxis", 
      "name": "swapaxes5", 
      "attrs": {
        "dim1": "1", 
        "dim2": "2"
      }, 
      "inputs": [[220, 0, 0]]
    }, 
    {
      "op": "Reshape", 
      "name": "reshape11", 
      "attrs": {"shape": "(0, -3, -2)"}, 
      "inputs": [[221, 0, 0]]
    }, 
    {
      "op": "SliceChannel", 
      "name": "split4", 
      "attrs": {
        "axis": "1", 
        "num_outputs": "2"
      }, 
      "inputs": [[222, 0, 0]]
    }, 
    {
      "op": "null", 
      "name": "convolution23_weight", 
      "attrs": {
        "kernel": "(1, 1)", 
        "num_filter": "244", 
        "stride": "(1, 1)"
      }, 
      "inputs": []
    }, 
    {
      "op": "null", 
      "name": "convolution23_bias", 
      "attrs": {
        "kernel": "(1, 1)", 
        "num_filter": "244", 
        "stride": "(1, 1)"
      }, 
      "inputs": []
    }, 
    {
      "op": "Convolution", 
      "name": "convolution23", 
      "attrs": {
        "kernel": "(1, 1)", 
        "num_filter": "244", 
        "stride": "(1, 1)"
      }, 
      "inputs": [[223, 1, 0], [224, 0, 0], [225, 0, 0]]
    }, 
    {
      "op": "null", 
      "name": "batchnorm22_gamma", 
      "inputs": []
    }, 
    {
      "op": "null", 
      "name": "batchnorm22_beta", 
      "inputs": []
    }, 
    {
      "op": "null", 
      "name": "batchnorm22_moving_mean", 
      "attrs": {"__init__": "[\"zero\", {}]"}, 
      "inputs": []
    }, 
    {
      "op": "null", 
      "name": "batchnorm22_moving_var", 
      "attrs": {"__init__": "[\"one\", {}]"}, 
      "inputs": []
    }, 
    {
      "op": "BatchNorm", 
      "name": "batchnorm22", 
      "inputs": [[226, 0, 0], [227, 0, 0], [228, 0, 0], [229, 0, 1], [230, 0, 1]]
    }, 
    {
      "op": "Activation", 
      "name": "activation14", 
      "attrs": {"act_type": "relu"}, 
      "inputs": [[231, 0, 0]]
    }, 
    {
      "op": "null", 
      "name": "convolution24_weight", 
      "attrs": {
        "kernel": "(3, 3)", 
        "num_filter": "244", 
        "num_group": "244", 
        "pad": "(1, 1)", 
        "stride": "(1, 1)"
      }, 
      "inputs": []
    }, 
    {
      "op": "null", 
      "name": "convolution24_bias", 
      "attrs": {
        "kernel": "(3, 3)", 
        "num_filter": "244", 
        "num_group": "244", 
        "pad": "(1, 1)", 
        "stride": "(1, 1)"
      }, 
      "inputs": []
    }, 
    {
      "op": "Convolution", 
      "name": "convolution24", 
      "attrs": {
        "kernel": "(3, 3)", 
        "num_filter": "244", 
        "num_group": "244", 
        "pad": "(1, 1)", 
        "stride": "(1, 1)"
      }, 
      "inputs": [[232, 0, 0], [233, 0, 0], [234, 0, 0]]
    }, 
    {
      "op": "null", 
      "name": "batchnorm23_gamma", 
      "inputs": []
    }, 
    {
      "op": "null", 
      "name": "batchnorm23_beta", 
      "inputs": []
    }, 
    {
      "op": "null", 
      "name": "batchnorm23_moving_mean", 
      "attrs": {"__init__": "[\"zero\", {}]"}, 
      "inputs": []
    }, 
    {
      "op": "null", 
      "name": "batchnorm23_moving_var", 
      "attrs": {"__init__": "[\"one\", {}]"}, 
      "inputs": []
    }, 
    {
      "op": "BatchNorm", 
      "name": "batchnorm23", 
      "inputs": [[235, 0, 0], [236, 0, 0], [237, 0, 0], [238, 0, 1], [239, 0, 1]]
    }, 
    {
      "op": "null", 
      "name": "convolution25_weight", 
      "attrs": {
        "kernel": "(1, 1)", 
        "num_filter": "244", 
        "stride": "(1, 1)"
      }, 
      "inputs": []
    }, 
    {
      "op": "null", 
      "name": "convolution25_bias", 
      "attrs": {
        "kernel": "(1, 1)", 
        "num_filter": "244", 
        "stride": "(1, 1)"
      }, 
      "inputs": []
    }, 
    {
      "op": "Convolution", 
      "name": "convolution25", 
      "attrs": {
        "kernel": "(1, 1)", 
        "num_filter": "244", 
        "stride": "(1, 1)"
      }, 
      "inputs": [[240, 0, 0], [241, 0, 0], [242, 0, 0]]
    }, 
    {
      "op": "null", 
      "name": "batchnorm24_gamma", 
      "inputs": []
    }, 
    {
      "op": "null", 
      "name": "batchnorm24_beta", 
      "inputs": []
    }, 
    {
      "op": "null", 
      "name": "batchnorm24_moving_mean", 
      "attrs": {"__init__": "[\"zero\", {}]"}, 
      "inputs": []
    }, 
    {
      "op": "null", 
      "name": "batchnorm24_moving_var", 
      "attrs": {"__init__": "[\"one\", {}]"}, 
      "inputs": []
    }, 
    {
      "op": "BatchNorm", 
      "name": "batchnorm24", 
      "inputs": [[243, 0, 0], [244, 0, 0], [245, 0, 0], [246, 0, 1], [247, 0, 1]]
    }, 
    {
      "op": "Activation", 
      "name": "activation15", 
      "attrs": {"act_type": "relu"}, 
      "inputs": [[248, 0, 0]]
    }, 
    {
      "op": "Concat", 
      "name": "concat6", 
      "attrs": {
        "dim": "1", 
        "num_args": "2"
      }, 
      "inputs": [[223, 0, 0], [249, 0, 0]]
    }, 
    {
      "op": "Reshape", 
      "name": "reshape12", 
      "attrs": {"shape": "(0, -4, 2, -1, -2)"}, 
      "inputs": [[250, 0, 0]]
    }, 
    {
      "op": "SwapAxis", 
      "name": "swapaxes6", 
      "attrs": {
        "dim1": "1", 
        "dim2": "2"
      }, 
      "inputs": [[251, 0, 0]]
    }, 
    {
      "op": "Reshape", 
      "name": "reshape13", 
      "attrs": {"shape": "(0, -3, -2)"}, 
      "inputs": [[252, 0, 0]]
    }, 
    {
      "op": "SliceChannel", 
      "name": "split5", 
      "attrs": {
        "axis": "1", 
        "num_outputs": "2"
      }, 
      "inputs": [[253, 0, 0]]
    }, 
    {
      "op": "null", 
      "name": "convolution26_weight", 
      "attrs": {
        "kernel": "(1, 1)", 
        "num_filter": "244", 
        "stride": "(1, 1)"
      }, 
      "inputs": []
    }, 
    {
      "op": "null", 
      "name": "convolution26_bias", 
      "attrs": {
        "kernel": "(1, 1)", 
        "num_filter": "244", 
        "stride": "(1, 1)"
      }, 
      "inputs": []
    }, 
    {
      "op": "Convolution", 
      "name": "convolution26", 
      "attrs": {
        "kernel": "(1, 1)", 
        "num_filter": "244", 
        "stride": "(1, 1)"
      }, 
      "inputs": [[254, 1, 0], [255, 0, 0], [256, 0, 0]]
    }, 
    {
      "op": "null", 
      "name": "batchnorm25_gamma", 
      "inputs": []
    }, 
    {
      "op": "null", 
      "name": "batchnorm25_beta", 
      "inputs": []
    }, 
    {
      "op": "null", 
      "name": "batchnorm25_moving_mean", 
      "attrs": {"__init__": "[\"zero\", {}]"}, 
      "inputs": []
    }, 
    {
      "op": "null", 
      "name": "batchnorm25_moving_var", 
      "attrs": {"__init__": "[\"one\", {}]"}, 
      "inputs": []
    }, 
    {
      "op": "BatchNorm", 
      "name": "batchnorm25", 
      "inputs": [[257, 0, 0], [258, 0, 0], [259, 0, 0], [260, 0, 1], [261, 0, 1]]
    }, 
    {
      "op": "Activation", 
      "name": "activation16", 
      "attrs": {"act_type": "relu"}, 
      "inputs": [[262, 0, 0]]
    }, 
    {
      "op": "null", 
      "name": "convolution27_weight", 
      "attrs": {
        "kernel": "(3, 3)", 
        "num_filter": "244", 
        "num_group": "244", 
        "pad": "(1, 1)", 
        "stride": "(1, 1)"
      }, 
      "inputs": []
    }, 
    {
      "op": "null", 
      "name": "convolution27_bias", 
      "attrs": {
        "kernel": "(3, 3)", 
        "num_filter": "244", 
        "num_group": "244", 
        "pad": "(1, 1)", 
        "stride": "(1, 1)"
      }, 
      "inputs": []
    }, 
    {
      "op": "Convolution", 
      "name": "convolution27", 
      "attrs": {
        "kernel": "(3, 3)", 
        "num_filter": "244", 
        "num_group": "244", 
        "pad": "(1, 1)", 
        "stride": "(1, 1)"
      }, 
      "inputs": [[263, 0, 0], [264, 0, 0], [265, 0, 0]]
    }, 
    {
      "op": "null", 
      "name": "batchnorm26_gamma", 
      "inputs": []
    }, 
    {
      "op": "null", 
      "name": "batchnorm26_beta", 
      "inputs": []
    }, 
    {
      "op": "null", 
      "name": "batchnorm26_moving_mean", 
      "attrs": {"__init__": "[\"zero\", {}]"}, 
      "inputs": []
    }, 
    {
      "op": "null", 
      "name": "batchnorm26_moving_var", 
      "attrs": {"__init__": "[\"one\", {}]"}, 
      "inputs": []
    }, 
    {
      "op": "BatchNorm", 
      "name": "batchnorm26", 
      "inputs": [[266, 0, 0], [267, 0, 0], [268, 0, 0], [269, 0, 1], [270, 0, 1]]
    }, 
    {
      "op": "null", 
      "name": "convolution28_weight", 
      "attrs": {
        "kernel": "(1, 1)", 
        "num_filter": "244", 
        "stride": "(1, 1)"
      }, 
      "inputs": []
    }, 
    {
      "op": "null", 
      "name": "convolution28_bias", 
      "attrs": {
        "kernel": "(1, 1)", 
        "num_filter": "244", 
        "stride": "(1, 1)"
      }, 
      "inputs": []
    }, 
    {
      "op": "Convolution", 
      "name": "convolution28", 
      "attrs": {
        "kernel": "(1, 1)", 
        "num_filter": "244", 
        "stride": "(1, 1)"
      }, 
      "inputs": [[271, 0, 0], [272, 0, 0], [273, 0, 0]]
    }, 
    {
      "op": "null", 
      "name": "batchnorm27_gamma", 
      "inputs": []
    }, 
    {
      "op": "null", 
      "name": "batchnorm27_beta", 
      "inputs": []
    }, 
    {
      "op": "null", 
      "name": "batchnorm27_moving_mean", 
      "attrs": {"__init__": "[\"zero\", {}]"}, 
      "inputs": []
    }, 
    {
      "op": "null", 
      "name": "batchnorm27_moving_var", 
      "attrs": {"__init__": "[\"one\", {}]"}, 
      "inputs": []
    }, 
    {
      "op": "BatchNorm", 
      "name": "batchnorm27", 
      "inputs": [[274, 0, 0], [275, 0, 0], [276, 0, 0], [277, 0, 1], [278, 0, 1]]
    }, 
    {
      "op": "Activation", 
      "name": "activation17", 
      "attrs": {"act_type": "relu"}, 
      "inputs": [[279, 0, 0]]
    }, 
    {
      "op": "Concat", 
      "name": "concat7", 
      "attrs": {
        "dim": "1", 
        "num_args": "2"
      }, 
      "inputs": [[254, 0, 0], [280, 0, 0]]
    }, 
    {
      "op": "Reshape", 
      "name": "reshape14", 
      "attrs": {"shape": "(0, -4, 2, -1, -2)"}, 
      "inputs": [[281, 0, 0]]
    }, 
    {
      "op": "SwapAxis", 
      "name": "swapaxes7", 
      "attrs": {
        "dim1": "1", 
        "dim2": "2"
      }, 
      "inputs": [[282, 0, 0]]
    }, 
    {
      "op": "Reshape", 
      "name": "reshape15", 
      "attrs": {"shape": "(0, -3, -2)"}, 
      "inputs": [[283, 0, 0]]
    }, 
    {
      "op": "SliceChannel", 
      "name": "split6", 
      "attrs": {
        "axis": "1", 
        "num_outputs": "2"
      }, 
      "inputs": [[284, 0, 0]]
    }, 
    {
      "op": "null", 
      "name": "convolution29_weight", 
      "attrs": {
        "kernel": "(1, 1)", 
        "num_filter": "244", 
        "stride": "(1, 1)"
      }, 
      "inputs": []
    }, 
    {
      "op": "null", 
      "name": "convolution29_bias", 
      "attrs": {
        "kernel": "(1, 1)", 
        "num_filter": "244", 
        "stride": "(1, 1)"
      }, 
      "inputs": []
    }, 
    {
      "op": "Convolution", 
      "name": "convolution29", 
      "attrs": {
        "kernel": "(1, 1)", 
        "num_filter": "244", 
        "stride": "(1, 1)"
      }, 
      "inputs": [[285, 1, 0], [286, 0, 0], [287, 0, 0]]
    }, 
    {
      "op": "null", 
      "name": "batchnorm28_gamma", 
      "inputs": []
    }, 
    {
      "op": "null", 
      "name": "batchnorm28_beta", 
      "inputs": []
    }, 
    {
      "op": "null", 
      "name": "batchnorm28_moving_mean", 
      "attrs": {"__init__": "[\"zero\", {}]"}, 
      "inputs": []
    }, 
    {
      "op": "null", 
      "name": "batchnorm28_moving_var", 
      "attrs": {"__init__": "[\"one\", {}]"}, 
      "inputs": []
    }, 
    {
      "op": "BatchNorm", 
      "name": "batchnorm28", 
      "inputs": [[288, 0, 0], [289, 0, 0], [290, 0, 0], [291, 0, 1], [292, 0, 1]]
    }, 
    {
      "op": "Activation", 
      "name": "activation18", 
      "attrs": {"act_type": "relu"}, 
      "inputs": [[293, 0, 0]]
    }, 
    {
      "op": "null", 
      "name": "convolution30_weight", 
      "attrs": {
        "kernel": "(3, 3)", 
        "num_filter": "244", 
        "num_group": "244", 
        "pad": "(1, 1)", 
        "stride": "(1, 1)"
      }, 
      "inputs": []
    }, 
    {
      "op": "null", 
      "name": "convolution30_bias", 
      "attrs": {
        "kernel": "(3, 3)", 
        "num_filter": "244", 
        "num_group": "244", 
        "pad": "(1, 1)", 
        "stride": "(1, 1)"
      }, 
      "inputs": []
    }, 
    {
      "op": "Convolution", 
      "name": "convolution30", 
      "attrs": {
        "kernel": "(3, 3)", 
        "num_filter": "244", 
        "num_group": "244", 
        "pad": "(1, 1)", 
        "stride": "(1, 1)"
      }, 
      "inputs": [[294, 0, 0], [295, 0, 0], [296, 0, 0]]
    }, 
    {
      "op": "null", 
      "name": "batchnorm29_gamma", 
      "inputs": []
    }, 
    {
      "op": "null", 
      "name": "batchnorm29_beta", 
      "inputs": []
    }, 
    {
      "op": "null", 
      "name": "batchnorm29_moving_mean", 
      "attrs": {"__init__": "[\"zero\", {}]"}, 
      "inputs": []
    }, 
    {
      "op": "null", 
      "name": "batchnorm29_moving_var", 
      "attrs": {"__init__": "[\"one\", {}]"}, 
      "inputs": []
    }, 
    {
      "op": "BatchNorm", 
      "name": "batchnorm29", 
      "inputs": [[297, 0, 0], [298, 0, 0], [299, 0, 0], [300, 0, 1], [301, 0, 1]]
    }, 
    {
      "op": "null", 
      "name": "convolution31_weight", 
      "attrs": {
        "kernel": "(1, 1)", 
        "num_filter": "244", 
        "stride": "(1, 1)"
      }, 
      "inputs": []
    }, 
    {
      "op": "null", 
      "name": "convolution31_bias", 
      "attrs": {
        "kernel": "(1, 1)", 
        "num_filter": "244", 
        "stride": "(1, 1)"
      }, 
      "inputs": []
    }, 
    {
      "op": "Convolution", 
      "name": "convolution31", 
      "attrs": {
        "kernel": "(1, 1)", 
        "num_filter": "244", 
        "stride": "(1, 1)"
      }, 
      "inputs": [[302, 0, 0], [303, 0, 0], [304, 0, 0]]
    }, 
    {
      "op": "null", 
      "name": "batchnorm30_gamma", 
      "inputs": []
    }, 
    {
      "op": "null", 
      "name": "batchnorm30_beta", 
      "inputs": []
    }, 
    {
      "op": "null", 
      "name": "batchnorm30_moving_mean", 
      "attrs": {"__init__": "[\"zero\", {}]"}, 
      "inputs": []
    }, 
    {
      "op": "null", 
      "name": "batchnorm30_moving_var", 
      "attrs": {"__init__": "[\"one\", {}]"}, 
      "inputs": []
    }, 
    {
      "op": "BatchNorm", 
      "name": "batchnorm30", 
      "inputs": [[305, 0, 0], [306, 0, 0], [307, 0, 0], [308, 0, 1], [309, 0, 1]]
    }, 
    {
      "op": "Activation", 
      "name": "activation19", 
      "attrs": {"act_type": "relu"}, 
      "inputs": [[310, 0, 0]]
    }, 
    {
      "op": "Concat", 
      "name": "concat8", 
      "attrs": {
        "dim": "1", 
        "num_args": "2"
      }, 
      "inputs": [[285, 0, 0], [311, 0, 0]]
    }, 
    {
      "op": "Reshape", 
      "name": "reshape16", 
      "attrs": {"shape": "(0, -4, 2, -1, -2)"}, 
      "inputs": [[312, 0, 0]]
    }, 
    {
      "op": "SwapAxis", 
      "name": "swapaxes8", 
      "attrs": {
        "dim1": "1", 
        "dim2": "2"
      }, 
      "inputs": [[313, 0, 0]]
    }, 
    {
      "op": "Reshape", 
      "name": "reshape17", 
      "attrs": {"shape": "(0, -3, -2)"}, 
      "inputs": [[314, 0, 0]]
    }, 
    {
      "op": "SliceChannel", 
      "name": "split7", 
      "attrs": {
        "axis": "1", 
        "num_outputs": "2"
      }, 
      "inputs": [[315, 0, 0]]
    }, 
    {
      "op": "null", 
      "name": "convolution32_weight", 
      "attrs": {
        "kernel": "(1, 1)", 
        "num_filter": "244", 
        "stride": "(1, 1)"
      }, 
      "inputs": []
    }, 
    {
      "op": "null", 
      "name": "convolution32_bias", 
      "attrs": {
        "kernel": "(1, 1)", 
        "num_filter": "244", 
        "stride": "(1, 1)"
      }, 
      "inputs": []
    }, 
    {
      "op": "Convolution", 
      "name": "convolution32", 
      "attrs": {
        "kernel": "(1, 1)", 
        "num_filter": "244", 
        "stride": "(1, 1)"
      }, 
      "inputs": [[316, 1, 0], [317, 0, 0], [318, 0, 0]]
    }, 
    {
      "op": "null", 
      "name": "batchnorm31_gamma", 
      "inputs": []
    }, 
    {
      "op": "null", 
      "name": "batchnorm31_beta", 
      "inputs": []
    }, 
    {
      "op": "null", 
      "name": "batchnorm31_moving_mean", 
      "attrs": {"__init__": "[\"zero\", {}]"}, 
      "inputs": []
    }, 
    {
      "op": "null", 
      "name": "batchnorm31_moving_var", 
      "attrs": {"__init__": "[\"one\", {}]"}, 
      "inputs": []
    }, 
    {
      "op": "BatchNorm", 
      "name": "batchnorm31", 
      "inputs": [[319, 0, 0], [320, 0, 0], [321, 0, 0], [322, 0, 1], [323, 0, 1]]
    }, 
    {
      "op": "Activation", 
      "name": "activation20", 
      "attrs": {"act_type": "relu"}, 
      "inputs": [[324, 0, 0]]
    }, 
    {
      "op": "null", 
      "name": "convolution33_weight", 
      "attrs": {
        "kernel": "(3, 3)", 
        "num_filter": "244", 
        "num_group": "244", 
        "pad": "(1, 1)", 
        "stride": "(1, 1)"
      }, 
      "inputs": []
    }, 
    {
      "op": "null", 
      "name": "convolution33_bias", 
      "attrs": {
        "kernel": "(3, 3)", 
        "num_filter": "244", 
        "num_group": "244", 
        "pad": "(1, 1)", 
        "stride": "(1, 1)"
      }, 
      "inputs": []
    }, 
    {
      "op": "Convolution", 
      "name": "convolution33", 
      "attrs": {
        "kernel": "(3, 3)", 
        "num_filter": "244", 
        "num_group": "244", 
        "pad": "(1, 1)", 
        "stride": "(1, 1)"
      }, 
      "inputs": [[325, 0, 0], [326, 0, 0], [327, 0, 0]]
    }, 
    {
      "op": "null", 
      "name": "batchnorm32_gamma", 
      "inputs": []
    }, 
    {
      "op": "null", 
      "name": "batchnorm32_beta", 
      "inputs": []
    }, 
    {
      "op": "null", 
      "name": "batchnorm32_moving_mean", 
      "attrs": {"__init__": "[\"zero\", {}]"}, 
      "inputs": []
    }, 
    {
      "op": "null", 
      "name": "batchnorm32_moving_var", 
      "attrs": {"__init__": "[\"one\", {}]"}, 
      "inputs": []
    }, 
    {
      "op": "BatchNorm", 
      "name": "batchnorm32", 
      "inputs": [[328, 0, 0], [329, 0, 0], [330, 0, 0], [331, 0, 1], [332, 0, 1]]
    }, 
    {
      "op": "null", 
      "name": "convolution34_weight", 
      "attrs": {
        "kernel": "(1, 1)", 
        "num_filter": "244", 
        "stride": "(1, 1)"
      }, 
      "inputs": []
    }, 
    {
      "op": "null", 
      "name": "convolution34_bias", 
      "attrs": {
        "kernel": "(1, 1)", 
        "num_filter": "244", 
        "stride": "(1, 1)"
      }, 
      "inputs": []
    }, 
    {
      "op": "Convolution", 
      "name": "convolution34", 
      "attrs": {
        "kernel": "(1, 1)", 
        "num_filter": "244", 
        "stride": "(1, 1)"
      }, 
      "inputs": [[333, 0, 0], [334, 0, 0], [335, 0, 0]]
    }, 
    {
      "op": "null", 
      "name": "batchnorm33_gamma", 
      "inputs": []
    }, 
    {
      "op": "null", 
      "name": "batchnorm33_beta", 
      "inputs": []
    }, 
    {
      "op": "null", 
      "name": "batchnorm33_moving_mean", 
      "attrs": {"__init__": "[\"zero\", {}]"}, 
      "inputs": []
    }, 
    {
      "op": "null", 
      "name": "batchnorm33_moving_var", 
      "attrs": {"__init__": "[\"one\", {}]"}, 
      "inputs": []
    }, 
    {
      "op": "BatchNorm", 
      "name": "batchnorm33", 
      "inputs": [[336, 0, 0], [337, 0, 0], [338, 0, 0], [339, 0, 1], [340, 0, 1]]
    }, 
    {
      "op": "Activation", 
      "name": "activation21", 
      "attrs": {"act_type": "relu"}, 
      "inputs": [[341, 0, 0]]
    }, 
    {
      "op": "Concat", 
      "name": "concat9", 
      "attrs": {
        "dim": "1", 
        "num_args": "2"
      }, 
      "inputs": [[316, 0, 0], [342, 0, 0]]
    }, 
    {
      "op": "Reshape", 
      "name": "reshape18", 
      "attrs": {"shape": "(0, -4, 2, -1, -2)"}, 
      "inputs": [[343, 0, 0]]
    }, 
    {
      "op": "SwapAxis", 
      "name": "swapaxes9", 
      "attrs": {
        "dim1": "1", 
        "dim2": "2"
      }, 
      "inputs": [[344, 0, 0]]
    }, 
    {
      "op": "Reshape", 
      "name": "reshape19", 
      "attrs": {"shape": "(0, -3, -2)"}, 
      "inputs": [[345, 0, 0]]
    }, 
    {
      "op": "SliceChannel", 
      "name": "split8", 
      "attrs": {
        "axis": "1", 
        "num_outputs": "2"
      }, 
      "inputs": [[346, 0, 0]]
    }, 
    {
      "op": "null", 
      "name": "convolution35_weight", 
      "attrs": {
        "kernel": "(1, 1)", 
        "num_filter": "244", 
        "stride": "(1, 1)"
      }, 
      "inputs": []
    }, 
    {
      "op": "null", 
      "name": "convolution35_bias", 
      "attrs": {
        "kernel": "(1, 1)", 
        "num_filter": "244", 
        "stride": "(1, 1)"
      }, 
      "inputs": []
    }, 
    {
      "op": "Convolution", 
      "name": "convolution35", 
      "attrs": {
        "kernel": "(1, 1)", 
        "num_filter": "244", 
        "stride": "(1, 1)"
      }, 
      "inputs": [[347, 1, 0], [348, 0, 0], [349, 0, 0]]
    }, 
    {
      "op": "null", 
      "name": "batchnorm34_gamma", 
      "inputs": []
    }, 
    {
      "op": "null", 
      "name": "batchnorm34_beta", 
      "inputs": []
    }, 
    {
      "op": "null", 
      "name": "batchnorm34_moving_mean", 
      "attrs": {"__init__": "[\"zero\", {}]"}, 
      "inputs": []
    }, 
    {
      "op": "null", 
      "name": "batchnorm34_moving_var", 
      "attrs": {"__init__": "[\"one\", {}]"}, 
      "inputs": []
    }, 
    {
      "op": "BatchNorm", 
      "name": "batchnorm34", 
      "inputs": [[350, 0, 0], [351, 0, 0], [352, 0, 0], [353, 0, 1], [354, 0, 1]]
    }, 
    {
      "op": "Activation", 
      "name": "activation22", 
      "attrs": {"act_type": "relu"}, 
      "inputs": [[355, 0, 0]]
    }, 
    {
      "op": "null", 
      "name": "convolution36_weight", 
      "attrs": {
        "kernel": "(3, 3)", 
        "num_filter": "244", 
        "num_group": "244", 
        "pad": "(1, 1)", 
        "stride": "(1, 1)"
      }, 
      "inputs": []
    }, 
    {
      "op": "null", 
      "name": "convolution36_bias", 
      "attrs": {
        "kernel": "(3, 3)", 
        "num_filter": "244", 
        "num_group": "244", 
        "pad": "(1, 1)", 
        "stride": "(1, 1)"
      }, 
      "inputs": []
    }, 
    {
      "op": "Convolution", 
      "name": "convolution36", 
      "attrs": {
        "kernel": "(3, 3)", 
        "num_filter": "244", 
        "num_group": "244", 
        "pad": "(1, 1)", 
        "stride": "(1, 1)"
      }, 
      "inputs": [[356, 0, 0], [357, 0, 0], [358, 0, 0]]
    }, 
    {
      "op": "null", 
      "name": "batchnorm35_gamma", 
      "inputs": []
    }, 
    {
      "op": "null", 
      "name": "batchnorm35_beta", 
      "inputs": []
    }, 
    {
      "op": "null", 
      "name": "batchnorm35_moving_mean", 
      "attrs": {"__init__": "[\"zero\", {}]"}, 
      "inputs": []
    }, 
    {
      "op": "null", 
      "name": "batchnorm35_moving_var", 
      "attrs": {"__init__": "[\"one\", {}]"}, 
      "inputs": []
    }, 
    {
      "op": "BatchNorm", 
      "name": "batchnorm35", 
      "inputs": [[359, 0, 0], [360, 0, 0], [361, 0, 0], [362, 0, 1], [363, 0, 1]]
    }, 
    {
      "op": "null", 
      "name": "convolution37_weight", 
      "attrs": {
        "kernel": "(1, 1)", 
        "num_filter": "244", 
        "stride": "(1, 1)"
      }, 
      "inputs": []
    }, 
    {
      "op": "null", 
      "name": "convolution37_bias", 
      "attrs": {
        "kernel": "(1, 1)", 
        "num_filter": "244", 
        "stride": "(1, 1)"
      }, 
      "inputs": []
    }, 
    {
      "op": "Convolution", 
      "name": "convolution37", 
      "attrs": {
        "kernel": "(1, 1)", 
        "num_filter": "244", 
        "stride": "(1, 1)"
      }, 
      "inputs": [[364, 0, 0], [365, 0, 0], [366, 0, 0]]
    }, 
    {
      "op": "null", 
      "name": "batchnorm36_gamma", 
      "inputs": []
    }, 
    {
      "op": "null", 
      "name": "batchnorm36_beta", 
      "inputs": []
    }, 
    {
      "op": "null", 
      "name": "batchnorm36_moving_mean", 
      "attrs": {"__init__": "[\"zero\", {}]"}, 
      "inputs": []
    }, 
    {
      "op": "null", 
      "name": "batchnorm36_moving_var", 
      "attrs": {"__init__": "[\"one\", {}]"}, 
      "inputs": []
    }, 
    {
      "op": "BatchNorm", 
      "name": "batchnorm36", 
      "inputs": [[367, 0, 0], [368, 0, 0], [369, 0, 0], [370, 0, 1], [371, 0, 1]]
    }, 
    {
      "op": "Activation", 
      "name": "activation23", 
      "attrs": {"act_type": "relu"}, 
      "inputs": [[372, 0, 0]]
    }, 
    {
      "op": "Concat", 
      "name": "concat10", 
      "attrs": {
        "dim": "1", 
        "num_args": "2"
      }, 
      "inputs": [[347, 0, 0], [373, 0, 0]]
    }, 
    {
      "op": "Reshape", 
      "name": "reshape20", 
      "attrs": {"shape": "(0, -4, 2, -1, -2)"}, 
      "inputs": [[374, 0, 0]]
    }, 
    {
      "op": "SwapAxis", 
      "name": "swapaxes10", 
      "attrs": {
        "dim1": "1", 
        "dim2": "2"
      }, 
      "inputs": [[375, 0, 0]]
    }, 
    {
      "op": "Reshape", 
      "name": "reshape21", 
      "attrs": {"shape": "(0, -3, -2)"}, 
      "inputs": [[376, 0, 0]]
    }, 
    {
      "op": "SliceChannel", 
      "name": "split9", 
      "attrs": {
        "axis": "1", 
        "num_outputs": "2"
      }, 
      "inputs": [[377, 0, 0]]
    }, 
    {
      "op": "null", 
      "name": "convolution38_weight", 
      "attrs": {
        "kernel": "(1, 1)", 
        "num_filter": "244", 
        "stride": "(1, 1)"
      }, 
      "inputs": []
    }, 
    {
      "op": "null", 
      "name": "convolution38_bias", 
      "attrs": {
        "kernel": "(1, 1)", 
        "num_filter": "244", 
        "stride": "(1, 1)"
      }, 
      "inputs": []
    }, 
    {
      "op": "Convolution", 
      "name": "convolution38", 
      "attrs": {
        "kernel": "(1, 1)", 
        "num_filter": "244", 
        "stride": "(1, 1)"
      }, 
      "inputs": [[378, 1, 0], [379, 0, 0], [380, 0, 0]]
    }, 
    {
      "op": "null", 
      "name": "batchnorm37_gamma", 
      "inputs": []
    }, 
    {
      "op": "null", 
      "name": "batchnorm37_beta", 
      "inputs": []
    }, 
    {
      "op": "null", 
      "name": "batchnorm37_moving_mean", 
      "attrs": {"__init__": "[\"zero\", {}]"}, 
      "inputs": []
    }, 
    {
      "op": "null", 
      "name": "batchnorm37_moving_var", 
      "attrs": {"__init__": "[\"one\", {}]"}, 
      "inputs": []
    }, 
    {
      "op": "BatchNorm", 
      "name": "batchnorm37", 
      "inputs": [[381, 0, 0], [382, 0, 0], [383, 0, 0], [384, 0, 1], [385, 0, 1]]
    }, 
    {
      "op": "Activation", 
      "name": "activation24", 
      "attrs": {"act_type": "relu"}, 
      "inputs": [[386, 0, 0]]
    }, 
    {
      "op": "null", 
      "name": "convolution39_weight", 
      "attrs": {
        "kernel": "(3, 3)", 
        "num_filter": "244", 
        "num_group": "244", 
        "pad": "(1, 1)", 
        "stride": "(1, 1)"
      }, 
      "inputs": []
    }, 
    {
      "op": "null", 
      "name": "convolution39_bias", 
      "attrs": {
        "kernel": "(3, 3)", 
        "num_filter": "244", 
        "num_group": "244", 
        "pad": "(1, 1)", 
        "stride": "(1, 1)"
      }, 
      "inputs": []
    }, 
    {
      "op": "Convolution", 
      "name": "convolution39", 
      "attrs": {
        "kernel": "(3, 3)", 
        "num_filter": "244", 
        "num_group": "244", 
        "pad": "(1, 1)", 
        "stride": "(1, 1)"
      }, 
      "inputs": [[387, 0, 0], [388, 0, 0], [389, 0, 0]]
    }, 
    {
      "op": "null", 
      "name": "batchnorm38_gamma", 
      "inputs": []
    }, 
    {
      "op": "null", 
      "name": "batchnorm38_beta", 
      "inputs": []
    }, 
    {
      "op": "null", 
      "name": "batchnorm38_moving_mean", 
      "attrs": {"__init__": "[\"zero\", {}]"}, 
      "inputs": []
    }, 
    {
      "op": "null", 
      "name": "batchnorm38_moving_var", 
      "attrs": {"__init__": "[\"one\", {}]"}, 
      "inputs": []
    }, 
    {
      "op": "BatchNorm", 
      "name": "batchnorm38", 
      "inputs": [[390, 0, 0], [391, 0, 0], [392, 0, 0], [393, 0, 1], [394, 0, 1]]
    }, 
    {
      "op": "null", 
      "name": "convolution40_weight", 
      "attrs": {
        "kernel": "(1, 1)", 
        "num_filter": "244", 
        "stride": "(1, 1)"
      }, 
      "inputs": []
    }, 
    {
      "op": "null", 
      "name": "convolution40_bias", 
      "attrs": {
        "kernel": "(1, 1)", 
        "num_filter": "244", 
        "stride": "(1, 1)"
      }, 
      "inputs": []
    }, 
    {
      "op": "Convolution", 
      "name": "convolution40", 
      "attrs": {
        "kernel": "(1, 1)", 
        "num_filter": "244", 
        "stride": "(1, 1)"
      }, 
      "inputs": [[395, 0, 0], [396, 0, 0], [397, 0, 0]]
    }, 
    {
      "op": "null", 
      "name": "batchnorm39_gamma", 
      "inputs": []
    }, 
    {
      "op": "null", 
      "name": "batchnorm39_beta", 
      "inputs": []
    }, 
    {
      "op": "null", 
      "name": "batchnorm39_moving_mean", 
      "attrs": {"__init__": "[\"zero\", {}]"}, 
      "inputs": []
    }, 
    {
      "op": "null", 
      "name": "batchnorm39_moving_var", 
      "attrs": {"__init__": "[\"one\", {}]"}, 
      "inputs": []
    }, 
    {
      "op": "BatchNorm", 
      "name": "batchnorm39", 
      "inputs": [[398, 0, 0], [399, 0, 0], [400, 0, 0], [401, 0, 1], [402, 0, 1]]
    }, 
    {
      "op": "Activation", 
      "name": "activation25", 
      "attrs": {"act_type": "relu"}, 
      "inputs": [[403, 0, 0]]
    }, 
    {
      "op": "Concat", 
      "name": "concat11", 
      "attrs": {
        "dim": "1", 
        "num_args": "2"
      }, 
      "inputs": [[378, 0, 0], [404, 0, 0]]
    }, 
    {
      "op": "Reshape", 
      "name": "reshape22", 
      "attrs": {"shape": "(0, -4, 2, -1, -2)"}, 
      "inputs": [[405, 0, 0]]
    }, 
    {
      "op": "SwapAxis", 
      "name": "swapaxes11", 
      "attrs": {
        "dim1": "1", 
        "dim2": "2"
      }, 
      "inputs": [[406, 0, 0]]
    }, 
    {
      "op": "Reshape", 
      "name": "reshape23", 
      "attrs": {"shape": "(0, -3, -2)"}, 
      "inputs": [[407, 0, 0]]
    }, 
    {
      "op": "null", 
      "name": "convolution44_weight", 
      "attrs": {
        "kernel": "(3, 3)", 
        "num_filter": "488", 
        "num_group": "488", 
        "pad": "(1, 1)", 
        "stride": "(2, 2)"
      }, 
      "inputs": []
    }, 
    {
      "op": "null", 
      "name": "convolution44_bias", 
      "attrs": {
        "kernel": "(3, 3)", 
        "num_filter": "488", 
        "num_group": "488", 
        "pad": "(1, 1)", 
        "stride": "(2, 2)"
      }, 
      "inputs": []
    }, 
    {
      "op": "Convolution", 
      "name": "convolution44", 
      "attrs": {
        "kernel": "(3, 3)", 
        "num_filter": "488", 
        "num_group": "488", 
        "pad": "(1, 1)", 
        "stride": "(2, 2)"
      }, 
      "inputs": [[408, 0, 0], [409, 0, 0], [410, 0, 0]]
    }, 
    {
      "op": "null", 
      "name": "batchnorm43_gamma", 
      "inputs": []
    }, 
    {
      "op": "null", 
      "name": "batchnorm43_beta", 
      "inputs": []
    }, 
    {
      "op": "null", 
      "name": "batchnorm43_moving_mean", 
      "attrs": {"__init__": "[\"zero\", {}]"}, 
      "inputs": []
    }, 
    {
      "op": "null", 
      "name": "batchnorm43_moving_var", 
      "attrs": {"__init__": "[\"one\", {}]"}, 
      "inputs": []
    }, 
    {
      "op": "BatchNorm", 
      "name": "batchnorm43", 
      "inputs": [[411, 0, 0], [412, 0, 0], [413, 0, 0], [414, 0, 1], [415, 0, 1]]
    }, 
    {
      "op": "null", 
      "name": "convolution45_weight", 
      "attrs": {
        "kernel": "(1, 1)", 
        "num_filter": "488", 
        "stride": "(1, 1)"
      }, 
      "inputs": []
    }, 
    {
      "op": "null", 
      "name": "convolution45_bias", 
      "attrs": {
        "kernel": "(1, 1)", 
        "num_filter": "488", 
        "stride": "(1, 1)"
      }, 
      "inputs": []
    }, 
    {
      "op": "Convolution", 
      "name": "convolution45", 
      "attrs": {
        "kernel": "(1, 1)", 
        "num_filter": "488", 
        "stride": "(1, 1)"
      }, 
      "inputs": [[416, 0, 0], [417, 0, 0], [418, 0, 0]]
    }, 
    {
      "op": "null", 
      "name": "batchnorm44_gamma", 
      "inputs": []
    }, 
    {
      "op": "null", 
      "name": "batchnorm44_beta", 
      "inputs": []
    }, 
    {
      "op": "null", 
      "name": "batchnorm44_moving_mean", 
      "attrs": {"__init__": "[\"zero\", {}]"}, 
      "inputs": []
    }, 
    {
      "op": "null", 
      "name": "batchnorm44_moving_var", 
      "attrs": {"__init__": "[\"one\", {}]"}, 
      "inputs": []
    }, 
    {
      "op": "BatchNorm", 
      "name": "batchnorm44", 
      "inputs": [[419, 0, 0], [420, 0, 0], [421, 0, 0], [422, 0, 1], [423, 0, 1]]
    }, 
    {
      "op": "Activation", 
      "name": "activation28", 
      "attrs": {"act_type": "relu"}, 
      "inputs": [[424, 0, 0]]
    }, 
    {
      "op": "null", 
      "name": "convolution41_weight", 
      "attrs": {
        "kernel": "(1, 1)", 
        "num_filter": "488", 
        "stride": "(1, 1)"
      }, 
      "inputs": []
    }, 
    {
      "op": "null", 
      "name": "convolution41_bias", 
      "attrs": {
        "kernel": "(1, 1)", 
        "num_filter": "488", 
        "stride": "(1, 1)"
      }, 
      "inputs": []
    }, 
    {
      "op": "Convolution", 
      "name": "convolution41", 
      "attrs": {
        "kernel": "(1, 1)", 
        "num_filter": "488", 
        "stride": "(1, 1)"
      }, 
      "inputs": [[408, 0, 0], [426, 0, 0], [427, 0, 0]]
    }, 
    {
      "op": "null", 
      "name": "batchnorm40_gamma", 
      "inputs": []
    }, 
    {
      "op": "null", 
      "name": "batchnorm40_beta", 
      "inputs": []
    }, 
    {
      "op": "null", 
      "name": "batchnorm40_moving_mean", 
      "attrs": {"__init__": "[\"zero\", {}]"}, 
      "inputs": []
    }, 
    {
      "op": "null", 
      "name": "batchnorm40_moving_var", 
      "attrs": {"__init__": "[\"one\", {}]"}, 
      "inputs": []
    }, 
    {
      "op": "BatchNorm", 
      "name": "batchnorm40", 
      "inputs": [[428, 0, 0], [429, 0, 0], [430, 0, 0], [431, 0, 1], [432, 0, 1]]
    }, 
    {
      "op": "Activation", 
      "name": "activation26", 
      "attrs": {"act_type": "relu"}, 
      "inputs": [[433, 0, 0]]
    }, 
    {
      "op": "null", 
      "name": "convolution42_weight", 
      "attrs": {
        "kernel": "(3, 3)", 
        "num_filter": "488", 
        "num_group": "488", 
        "pad": "(1, 1)", 
        "stride": "(2, 2)"
      }, 
      "inputs": []
    }, 
    {
      "op": "null", 
      "name": "convolution42_bias", 
      "attrs": {
        "kernel": "(3, 3)", 
        "num_filter": "488", 
        "num_group": "488", 
        "pad": "(1, 1)", 
        "stride": "(2, 2)"
      }, 
      "inputs": []
    }, 
    {
      "op": "Convolution", 
      "name": "convolution42", 
      "attrs": {
        "kernel": "(3, 3)", 
        "num_filter": "488", 
        "num_group": "488", 
        "pad": "(1, 1)", 
        "stride": "(2, 2)"
      }, 
      "inputs": [[434, 0, 0], [435, 0, 0], [436, 0, 0]]
    }, 
    {
      "op": "null", 
      "name": "batchnorm41_gamma", 
      "inputs": []
    }, 
    {
      "op": "null", 
      "name": "batchnorm41_beta", 
      "inputs": []
    }, 
    {
      "op": "null", 
      "name": "batchnorm41_moving_mean", 
      "attrs": {"__init__": "[\"zero\", {}]"}, 
      "inputs": []
    }, 
    {
      "op": "null", 
      "name": "batchnorm41_moving_var", 
      "attrs": {"__init__": "[\"one\", {}]"}, 
      "inputs": []
    }, 
    {
      "op": "BatchNorm", 
      "name": "batchnorm41", 
      "inputs": [[437, 0, 0], [438, 0, 0], [439, 0, 0], [440, 0, 1], [441, 0, 1]]
    }, 
    {
      "op": "null", 
      "name": "convolution43_weight", 
      "attrs": {
        "kernel": "(1, 1)", 
        "num_filter": "488", 
        "stride": "(1, 1)"
      }, 
      "inputs": []
    }, 
    {
      "op": "null", 
      "name": "convolution43_bias", 
      "attrs": {
        "kernel": "(1, 1)", 
        "num_filter": "488", 
        "stride": "(1, 1)"
      }, 
      "inputs": []
    }, 
    {
      "op": "Convolution", 
      "name": "convolution43", 
      "attrs": {
        "kernel": "(1, 1)", 
        "num_filter": "488", 
        "stride": "(1, 1)"
      }, 
      "inputs": [[442, 0, 0], [443, 0, 0], [444, 0, 0]]
    }, 
    {
      "op": "null", 
      "name": "batchnorm42_gamma", 
      "inputs": []
    }, 
    {
      "op": "null", 
      "name": "batchnorm42_beta", 
      "inputs": []
    }, 
    {
      "op": "null", 
      "name": "batchnorm42_moving_mean", 
      "attrs": {"__init__": "[\"zero\", {}]"}, 
      "inputs": []
    }, 
    {
      "op": "null", 
      "name": "batchnorm42_moving_var", 
      "attrs": {"__init__": "[\"one\", {}]"}, 
      "inputs": []
    }, 
    {
      "op": "BatchNorm", 
      "name": "batchnorm42", 
      "inputs": [[445, 0, 0], [446, 0, 0], [447, 0, 0], [448, 0, 1], [449, 0, 1]]
    }, 
    {
      "op": "Activation", 
      "name": "activation27", 
      "attrs": {"act_type": "relu"}, 
      "inputs": [[450, 0, 0]]
    }, 
    {
      "op": "Concat", 
      "name": "concat12", 
      "attrs": {
        "dim": "1", 
        "num_args": "2"
      }, 
      "inputs": [[425, 0, 0], [451, 0, 0]]
    }, 
    {
      "op": "Reshape", 
      "name": "reshape24", 
      "attrs": {"shape": "(0, -4, 2, -1, -2)"}, 
      "inputs": [[452, 0, 0]]
    }, 
    {
      "op": "SwapAxis", 
      "name": "swapaxes12", 
      "attrs": {
        "dim1": "1", 
        "dim2": "2"
      }, 
      "inputs": [[453, 0, 0]]
    }, 
    {
      "op": "Reshape", 
      "name": "reshape25", 
      "attrs": {"shape": "(0, -3, -2)"}, 
      "inputs": [[454, 0, 0]]
    }, 
    {
      "op": "SliceChannel", 
      "name": "split10", 
      "attrs": {
        "axis": "1", 
        "num_outputs": "2"
      }, 
      "inputs": [[455, 0, 0]]
    }, 
    {
      "op": "null", 
      "name": "convolution46_weight", 
      "attrs": {
        "kernel": "(1, 1)", 
        "num_filter": "488", 
        "stride": "(1, 1)"
      }, 
      "inputs": []
    }, 
    {
      "op": "null", 
      "name": "convolution46_bias", 
      "attrs": {
        "kernel": "(1, 1)", 
        "num_filter": "488", 
        "stride": "(1, 1)"
      }, 
      "inputs": []
    }, 
    {
      "op": "Convolution", 
      "name": "convolution46", 
      "attrs": {
        "kernel": "(1, 1)", 
        "num_filter": "488", 
        "stride": "(1, 1)"
      }, 
      "inputs": [[456, 1, 0], [457, 0, 0], [458, 0, 0]]
    }, 
    {
      "op": "null", 
      "name": "batchnorm45_gamma", 
      "inputs": []
    }, 
    {
      "op": "null", 
      "name": "batchnorm45_beta", 
      "inputs": []
    }, 
    {
      "op": "null", 
      "name": "batchnorm45_moving_mean", 
      "attrs": {"__init__": "[\"zero\", {}]"}, 
      "inputs": []
    }, 
    {
      "op": "null", 
      "name": "batchnorm45_moving_var", 
      "attrs": {"__init__": "[\"one\", {}]"}, 
      "inputs": []
    }, 
    {
      "op": "BatchNorm", 
      "name": "batchnorm45", 
      "inputs": [[459, 0, 0], [460, 0, 0], [461, 0, 0], [462, 0, 1], [463, 0, 1]]
    }, 
    {
      "op": "Activation", 
      "name": "activation29", 
      "attrs": {"act_type": "relu"}, 
      "inputs": [[464, 0, 0]]
    }, 
    {
      "op": "null", 
      "name": "convolution47_weight", 
      "attrs": {
        "kernel": "(3, 3)", 
        "num_filter": "488", 
        "num_group": "488", 
        "pad": "(1, 1)", 
        "stride": "(1, 1)"
      }, 
      "inputs": []
    }, 
    {
      "op": "null", 
      "name": "convolution47_bias", 
      "attrs": {
        "kernel": "(3, 3)", 
        "num_filter": "488", 
        "num_group": "488", 
        "pad": "(1, 1)", 
        "stride": "(1, 1)"
      }, 
      "inputs": []
    }, 
    {
      "op": "Convolution", 
      "name": "convolution47", 
      "attrs": {
        "kernel": "(3, 3)", 
        "num_filter": "488", 
        "num_group": "488", 
        "pad": "(1, 1)", 
        "stride": "(1, 1)"
      }, 
      "inputs": [[465, 0, 0], [466, 0, 0], [467, 0, 0]]
    }, 
    {
      "op": "null", 
      "name": "batchnorm46_gamma", 
      "inputs": []
    }, 
    {
      "op": "null", 
      "name": "batchnorm46_beta", 
      "inputs": []
    }, 
    {
      "op": "null", 
      "name": "batchnorm46_moving_mean", 
      "attrs": {"__init__": "[\"zero\", {}]"}, 
      "inputs": []
    }, 
    {
      "op": "null", 
      "name": "batchnorm46_moving_var", 
      "attrs": {"__init__": "[\"one\", {}]"}, 
      "inputs": []
    }, 
    {
      "op": "BatchNorm", 
      "name": "batchnorm46", 
      "inputs": [[468, 0, 0], [469, 0, 0], [470, 0, 0], [471, 0, 1], [472, 0, 1]]
    }, 
    {
      "op": "null", 
      "name": "convolution48_weight", 
      "attrs": {
        "kernel": "(1, 1)", 
        "num_filter": "488", 
        "stride": "(1, 1)"
      }, 
      "inputs": []
    }, 
    {
      "op": "null", 
      "name": "convolution48_bias", 
      "attrs": {
        "kernel": "(1, 1)", 
        "num_filter": "488", 
        "stride": "(1, 1)"
      }, 
      "inputs": []
    }, 
    {
      "op": "Convolution", 
      "name": "convolution48", 
      "attrs": {
        "kernel": "(1, 1)", 
        "num_filter": "488", 
        "stride": "(1, 1)"
      }, 
      "inputs": [[473, 0, 0], [474, 0, 0], [475, 0, 0]]
    }, 
    {
      "op": "null", 
      "name": "batchnorm47_gamma", 
      "inputs": []
    }, 
    {
      "op": "null", 
      "name": "batchnorm47_beta", 
      "inputs": []
    }, 
    {
      "op": "null", 
      "name": "batchnorm47_moving_mean", 
      "attrs": {"__init__": "[\"zero\", {}]"}, 
      "inputs": []
    }, 
    {
      "op": "null", 
      "name": "batchnorm47_moving_var", 
      "attrs": {"__init__": "[\"one\", {}]"}, 
      "inputs": []
    }, 
    {
      "op": "BatchNorm", 
      "name": "batchnorm47", 
      "inputs": [[476, 0, 0], [477, 0, 0], [478, 0, 0], [479, 0, 1], [480, 0, 1]]
    }, 
    {
      "op": "Activation", 
      "name": "activation30", 
      "attrs": {"act_type": "relu"}, 
      "inputs": [[481, 0, 0]]
    }, 
    {
      "op": "Concat", 
      "name": "concat13", 
      "attrs": {
        "dim": "1", 
        "num_args": "2"
      }, 
      "inputs": [[456, 0, 0], [482, 0, 0]]
    }, 
    {
      "op": "Reshape", 
      "name": "reshape26", 
      "attrs": {"shape": "(0, -4, 2, -1, -2)"}, 
      "inputs": [[483, 0, 0]]
    }, 
    {
      "op": "SwapAxis", 
      "name": "swapaxes13", 
      "attrs": {
        "dim1": "1", 
        "dim2": "2"
      }, 
      "inputs": [[484, 0, 0]]
    }, 
    {
      "op": "Reshape", 
      "name": "reshape27", 
      "attrs": {"shape": "(0, -3, -2)"}, 
      "inputs": [[485, 0, 0]]
    }, 
    {
      "op": "SliceChannel", 
      "name": "split11", 
      "attrs": {
        "axis": "1", 
        "num_outputs": "2"
      }, 
      "inputs": [[486, 0, 0]]
    }, 
    {
      "op": "null", 
      "name": "convolution49_weight", 
      "attrs": {
        "kernel": "(1, 1)", 
        "num_filter": "488", 
        "stride": "(1, 1)"
      }, 
      "inputs": []
    }, 
    {
      "op": "null", 
      "name": "convolution49_bias", 
      "attrs": {
        "kernel": "(1, 1)", 
        "num_filter": "488", 
        "stride": "(1, 1)"
      }, 
      "inputs": []
    }, 
    {
      "op": "Convolution", 
      "name": "convolution49", 
      "attrs": {
        "kernel": "(1, 1)", 
        "num_filter": "488", 
        "stride": "(1, 1)"
      }, 
      "inputs": [[487, 1, 0], [488, 0, 0], [489, 0, 0]]
    }, 
    {
      "op": "null", 
      "name": "batchnorm48_gamma", 
      "inputs": []
    }, 
    {
      "op": "null", 
      "name": "batchnorm48_beta", 
      "inputs": []
    }, 
    {
      "op": "null", 
      "name": "batchnorm48_moving_mean", 
      "attrs": {"__init__": "[\"zero\", {}]"}, 
      "inputs": []
    }, 
    {
      "op": "null", 
      "name": "batchnorm48_moving_var", 
      "attrs": {"__init__": "[\"one\", {}]"}, 
      "inputs": []
    }, 
    {
      "op": "BatchNorm", 
      "name": "batchnorm48", 
      "inputs": [[490, 0, 0], [491, 0, 0], [492, 0, 0], [493, 0, 1], [494, 0, 1]]
    }, 
    {
      "op": "Activation", 
      "name": "activation31", 
      "attrs": {"act_type": "relu"}, 
      "inputs": [[495, 0, 0]]
    }, 
    {
      "op": "null", 
      "name": "convolution50_weight", 
      "attrs": {
        "kernel": "(3, 3)", 
        "num_filter": "488", 
        "num_group": "488", 
        "pad": "(1, 1)", 
        "stride": "(1, 1)"
      }, 
      "inputs": []
    }, 
    {
      "op": "null", 
      "name": "convolution50_bias", 
      "attrs": {
        "kernel": "(3, 3)", 
        "num_filter": "488", 
        "num_group": "488", 
        "pad": "(1, 1)", 
        "stride": "(1, 1)"
      }, 
      "inputs": []
    }, 
    {
      "op": "Convolution", 
      "name": "convolution50", 
      "attrs": {
        "kernel": "(3, 3)", 
        "num_filter": "488", 
        "num_group": "488", 
        "pad": "(1, 1)", 
        "stride": "(1, 1)"
      }, 
      "inputs": [[496, 0, 0], [497, 0, 0], [498, 0, 0]]
    }, 
    {
      "op": "null", 
      "name": "batchnorm49_gamma", 
      "inputs": []
    }, 
    {
      "op": "null", 
      "name": "batchnorm49_beta", 
      "inputs": []
    }, 
    {
      "op": "null", 
      "name": "batchnorm49_moving_mean", 
      "attrs": {"__init__": "[\"zero\", {}]"}, 
      "inputs": []
    }, 
    {
      "op": "null", 
      "name": "batchnorm49_moving_var", 
      "attrs": {"__init__": "[\"one\", {}]"}, 
      "inputs": []
    }, 
    {
      "op": "BatchNorm", 
      "name": "batchnorm49", 
      "inputs": [[499, 0, 0], [500, 0, 0], [501, 0, 0], [502, 0, 1], [503, 0, 1]]
    }, 
    {
      "op": "null", 
      "name": "convolution51_weight", 
      "attrs": {
        "kernel": "(1, 1)", 
        "num_filter": "488", 
        "stride": "(1, 1)"
      }, 
      "inputs": []
    }, 
    {
      "op": "null", 
      "name": "convolution51_bias", 
      "attrs": {
        "kernel": "(1, 1)", 
        "num_filter": "488", 
        "stride": "(1, 1)"
      }, 
      "inputs": []
    }, 
    {
      "op": "Convolution", 
      "name": "convolution51", 
      "attrs": {
        "kernel": "(1, 1)", 
        "num_filter": "488", 
        "stride": "(1, 1)"
      }, 
      "inputs": [[504, 0, 0], [505, 0, 0], [506, 0, 0]]
    }, 
    {
      "op": "null", 
      "name": "batchnorm50_gamma", 
      "inputs": []
    }, 
    {
      "op": "null", 
      "name": "batchnorm50_beta", 
      "inputs": []
    }, 
    {
      "op": "null", 
      "name": "batchnorm50_moving_mean", 
      "attrs": {"__init__": "[\"zero\", {}]"}, 
      "inputs": []
    }, 
    {
      "op": "null", 
      "name": "batchnorm50_moving_var", 
      "attrs": {"__init__": "[\"one\", {}]"}, 
      "inputs": []
    }, 
    {
      "op": "BatchNorm", 
      "name": "batchnorm50", 
      "inputs": [[507, 0, 0], [508, 0, 0], [509, 0, 0], [510, 0, 1], [511, 0, 1]]
    }, 
    {
      "op": "Activation", 
      "name": "activation32", 
      "attrs": {"act_type": "relu"}, 
      "inputs": [[512, 0, 0]]
    }, 
    {
      "op": "Concat", 
      "name": "concat14", 
      "attrs": {
        "dim": "1", 
        "num_args": "2"
      }, 
      "inputs": [[487, 0, 0], [513, 0, 0]]
    }, 
    {
      "op": "Reshape", 
      "name": "reshape28", 
      "attrs": {"shape": "(0, -4, 2, -1, -2)"}, 
      "inputs": [[514, 0, 0]]
    }, 
    {
      "op": "SwapAxis", 
      "name": "swapaxes14", 
      "attrs": {
        "dim1": "1", 
        "dim2": "2"
      }, 
      "inputs": [[515, 0, 0]]
    }, 
    {
      "op": "Reshape", 
      "name": "reshape29", 
      "attrs": {"shape": "(0, -3, -2)"}, 
      "inputs": [[516, 0, 0]]
    }, 
    {
      "op": "SliceChannel", 
      "name": "split12", 
      "attrs": {
        "axis": "1", 
        "num_outputs": "2"
      }, 
      "inputs": [[517, 0, 0]]
    }, 
    {
      "op": "null", 
      "name": "convolution52_weight", 
      "attrs": {
        "kernel": "(1, 1)", 
        "num_filter": "488", 
        "stride": "(1, 1)"
      }, 
      "inputs": []
    }, 
    {
      "op": "null", 
      "name": "convolution52_bias", 
      "attrs": {
        "kernel": "(1, 1)", 
        "num_filter": "488", 
        "stride": "(1, 1)"
      }, 
      "inputs": []
    }, 
    {
      "op": "Convolution", 
      "name": "convolution52", 
      "attrs": {
        "kernel": "(1, 1)", 
        "num_filter": "488", 
        "stride": "(1, 1)"
      }, 
      "inputs": [[518, 1, 0], [519, 0, 0], [520, 0, 0]]
    }, 
    {
      "op": "null", 
      "name": "batchnorm51_gamma", 
      "inputs": []
    }, 
    {
      "op": "null", 
      "name": "batchnorm51_beta", 
      "inputs": []
    }, 
    {
      "op": "null", 
      "name": "batchnorm51_moving_mean", 
      "attrs": {"__init__": "[\"zero\", {}]"}, 
      "inputs": []
    }, 
    {
      "op": "null", 
      "name": "batchnorm51_moving_var", 
      "attrs": {"__init__": "[\"one\", {}]"}, 
      "inputs": []
    }, 
    {
      "op": "BatchNorm", 
      "name": "batchnorm51", 
      "inputs": [[521, 0, 0], [522, 0, 0], [523, 0, 0], [524, 0, 1], [525, 0, 1]]
    }, 
    {
      "op": "Activation", 
      "name": "activation33", 
      "attrs": {"act_type": "relu"}, 
      "inputs": [[526, 0, 0]]
    }, 
    {
      "op": "null", 
      "name": "convolution53_weight", 
      "attrs": {
        "kernel": "(3, 3)", 
        "num_filter": "488", 
        "num_group": "488", 
        "pad": "(1, 1)", 
        "stride": "(1, 1)"
      }, 
      "inputs": []
    }, 
    {
      "op": "null", 
      "name": "convolution53_bias", 
      "attrs": {
        "kernel": "(3, 3)", 
        "num_filter": "488", 
        "num_group": "488", 
        "pad": "(1, 1)", 
        "stride": "(1, 1)"
      }, 
      "inputs": []
    }, 
    {
      "op": "Convolution", 
      "name": "convolution53", 
      "attrs": {
        "kernel": "(3, 3)", 
        "num_filter": "488", 
        "num_group": "488", 
        "pad": "(1, 1)", 
        "stride": "(1, 1)"
      }, 
      "inputs": [[527, 0, 0], [528, 0, 0], [529, 0, 0]]
    }, 
    {
      "op": "null", 
      "name": "batchnorm52_gamma", 
      "inputs": []
    }, 
    {
      "op": "null", 
      "name": "batchnorm52_beta", 
      "inputs": []
    }, 
    {
      "op": "null", 
      "name": "batchnorm52_moving_mean", 
      "attrs": {"__init__": "[\"zero\", {}]"}, 
      "inputs": []
    }, 
    {
      "op": "null", 
      "name": "batchnorm52_moving_var", 
      "attrs": {"__init__": "[\"one\", {}]"}, 
      "inputs": []
    }, 
    {
      "op": "BatchNorm", 
      "name": "batchnorm52", 
      "inputs": [[530, 0, 0], [531, 0, 0], [532, 0, 0], [533, 0, 1], [534, 0, 1]]
    }, 
    {
      "op": "null", 
      "name": "convolution54_weight", 
      "attrs": {
        "kernel": "(1, 1)", 
        "num_filter": "488", 
        "stride": "(1, 1)"
      }, 
      "inputs": []
    }, 
    {
      "op": "null", 
      "name": "convolution54_bias", 
      "attrs": {
        "kernel": "(1, 1)", 
        "num_filter": "488", 
        "stride": "(1, 1)"
      }, 
      "inputs": []
    }, 
    {
      "op": "Convolution", 
      "name": "convolution54", 
      "attrs": {
        "kernel": "(1, 1)", 
        "num_filter": "488", 
        "stride": "(1, 1)"
      }, 
      "inputs": [[535, 0, 0], [536, 0, 0], [537, 0, 0]]
    }, 
    {
      "op": "null", 
      "name": "batchnorm53_gamma", 
      "inputs": []
    }, 
    {
      "op": "null", 
      "name": "batchnorm53_beta", 
      "inputs": []
    }, 
    {
      "op": "null", 
      "name": "batchnorm53_moving_mean", 
      "attrs": {"__init__": "[\"zero\", {}]"}, 
      "inputs": []
    }, 
    {
      "op": "null", 
      "name": "batchnorm53_moving_var", 
      "attrs": {"__init__": "[\"one\", {}]"}, 
      "inputs": []
    }, 
    {
      "op": "BatchNorm", 
      "name": "batchnorm53", 
      "inputs": [[538, 0, 0], [539, 0, 0], [540, 0, 0], [541, 0, 1], [542, 0, 1]]
    }, 
    {
      "op": "Activation", 
      "name": "activation34", 
      "attrs": {"act_type": "relu"}, 
      "inputs": [[543, 0, 0]]
    }, 
    {
      "op": "Concat", 
      "name": "concat15", 
      "attrs": {
        "dim": "1", 
        "num_args": "2"
      }, 
      "inputs": [[518, 0, 0], [544, 0, 0]]
    }, 
    {
      "op": "Reshape", 
      "name": "reshape30", 
      "attrs": {"shape": "(0, -4, 2, -1, -2)"}, 
      "inputs": [[545, 0, 0]]
    }, 
    {
      "op": "SwapAxis", 
      "name": "swapaxes15", 
      "attrs": {
        "dim1": "1", 
        "dim2": "2"
      }, 
      "inputs": [[546, 0, 0]]
    }, 
    {
      "op": "Reshape", 
      "name": "reshape31", 
      "attrs": {"shape": "(0, -3, -2)"}, 
      "inputs": [[547, 0, 0]]
    }, 
    {
      "op": "null", 
      "name": "convolution55_weight", 
      "attrs": {
        "kernel": "(1, 1)", 
        "num_filter": "2048", 
        "stride": "(1, 1)"
      }, 
      "inputs": []
    }, 
    {
      "op": "null", 
      "name": "convolution55_bias", 
      "attrs": {
        "kernel": "(1, 1)", 
        "num_filter": "2048", 
        "stride": "(1, 1)"
      }, 
      "inputs": []
    }, 
    {
      "op": "Convolution", 
      "name": "convolution55", 
      "attrs": {
        "kernel": "(1, 1)", 
        "num_filter": "2048", 
        "stride": "(1, 1)"
      }, 
      "inputs": [[548, 0, 0], [549, 0, 0], [550, 0, 0]]
    }, 
    {
      "op": "Pooling", 
      "name": "pooling1", 
      "attrs": {
        "global_pool": "True", 
        "kernel": "(7, 7)", 
        "pool_type": "avg"
      }, 
      "inputs": [[551, 0, 0]]
    }, 
    {
      "op": "Flatten", 
      "name": "flatten0", 
      "inputs": [[552, 0, 0]]
    }, 
    {
      "op": "null", 
      "name": "fullyconnected0_weight", 
      "attrs": {"num_hidden": "2"}, 
      "inputs": []
    }, 
    {
      "op": "null", 
      "name": "fullyconnected0_bias", 
      "attrs": {"num_hidden": "2"}, 
      "inputs": []
    }, 
    {
      "op": "FullyConnected", 
      "name": "fullyconnected0", 
      "attrs": {"num_hidden": "2"}, 
      "inputs": [[553, 0, 0], [554, 0, 0], [555, 0, 0]]
    }, 
    {
      "op": "null", 
      "name": "softmax_label", 
      "inputs": []
    }, 
    {
      "op": "SoftmaxOutput", 
      "name": "softmax", 
      "inputs": [[556, 0, 0], [557, 0, 0]]
    }
  ], 
  "arg_nodes": [
    0, 
    1, 
    2, 
    5, 
    6, 
    8, 
    9, 
    10, 
    11, 
    13, 
    14, 
    16, 
    17, 
    18, 
    19, 
    22, 
    23, 
    25, 
    26, 
    27, 
    28, 
    31, 
    32, 
    34, 
    35, 
    36, 
    37, 
    39, 
    40, 
    42, 
    43, 
    44, 
    45, 
    53, 
    54, 
    56, 
    57, 
    58, 
    59, 
    62, 
    63, 
    65, 
    66, 
    67, 
    68, 
    70, 
    71, 
    73, 
    74, 
    75, 
    76, 
    84, 
    85, 
    87, 
    88, 
    89, 
    90, 
    93, 
    94, 
    96, 
    97, 
    98, 
    99, 
    101, 
    102, 
    104, 
    105, 
    106, 
    107, 
    115, 
    116, 
    118, 
    119, 
    120, 
    121, 
    124, 
    125, 
    127, 
    128, 
    129, 
    130, 
    132, 
    133, 
    135, 
    136, 
    137, 
    138, 
    145, 
    146, 
    148, 
    149, 
    150, 
    151, 
    153, 
    154, 
    156, 
    157, 
    158, 
    159, 
    162, 
    163, 
    165, 
    166, 
    167, 
    168, 
    171, 
    172, 
    174, 
    175, 
    176, 
    177, 
    179, 
    180, 
    182, 
    183, 
    184, 
    185, 
    193, 
    194, 
    196, 
    197, 
    198, 
    199, 
    202, 
    203, 
    205, 
    206, 
    207, 
    208, 
    210, 
    211, 
    213, 
    214, 
    215, 
    216, 
    224, 
    225, 
    227, 
    228, 
    229, 
    230, 
    233, 
    234, 
    236, 
    237, 
    238, 
    239, 
    241, 
    242, 
    244, 
    245, 
    246, 
    247, 
    255, 
    256, 
    258, 
    259, 
    260, 
    261, 
    264, 
    265, 
    267, 
    268, 
    269, 
    270, 
    272, 
    273, 
    275, 
    276, 
    277, 
    278, 
    286, 
    287, 
    289, 
    290, 
    291, 
    292, 
    295, 
    296, 
    298, 
    299, 
    300, 
    301, 
    303, 
    304, 
    306, 
    307, 
    308, 
    309, 
    317, 
    318, 
    320, 
    321, 
    322, 
    323, 
    326, 
    327, 
    329, 
    330, 
    331, 
    332, 
    334, 
    335, 
    337, 
    338, 
    339, 
    340, 
    348, 
    349, 
    351, 
    352, 
    353, 
    354, 
    357, 
    358, 
    360, 
    361, 
    362, 
    363, 
    365, 
    366, 
    368, 
    369, 
    370, 
    371, 
    379, 
    380, 
    382, 
    383, 
    384, 
    385, 
    388, 
    389, 
    391, 
    392, 
    393, 
    394, 
    396, 
    397, 
    399, 
    400, 
    401, 
    402, 
    409, 
    410, 
    412, 
    413, 
    414, 
    415, 
    417, 
    418, 
    420, 
    421, 
    422, 
    423, 
    426, 
    427, 
    429, 
    430, 
    431, 
    432, 
    435, 
    436, 
    438, 
    439, 
    440, 
    441, 
    443, 
    444, 
    446, 
    447, 
    448, 
    449, 
    457, 
    458, 
    460, 
    461, 
    462, 
    463, 
    466, 
    467, 
    469, 
    470, 
    471, 
    472, 
    474, 
    475, 
    477, 
    478, 
    479, 
    480, 
    488, 
    489, 
    491, 
    492, 
    493, 
    494, 
    497, 
    498, 
    500, 
    501, 
    502, 
    503, 
    505, 
    506, 
    508, 
    509, 
    510, 
    511, 
    519, 
    520, 
    522, 
    523, 
    524, 
    525, 
    528, 
    529, 
    531, 
    532, 
    533, 
    534, 
    536, 
    537, 
    539, 
    540, 
    541, 
    542, 
    549, 
    550, 
    554, 
    555, 
    557
  ], 
  "node_row_ptr": [
    0, 
    1, 
    2, 
    3, 
    4, 
    5, 
    6, 
    7, 
    8, 
    9, 
    10, 
    11, 
    12, 
    15, 
    16, 
    17, 
    18, 
    19, 
    20, 
    21, 
    22, 
    25, 
    26, 
    27, 
    28, 
    29, 
    30, 
    31, 
    32, 
    33, 
    36, 
    37, 
    38, 
    39, 
    40, 
    41, 
    42, 
    43, 
    44, 
    47, 
    48, 
    49, 
    50, 
    51, 
    52, 
    53, 
    54, 
    57, 
    58, 
    59, 
    60, 
    61, 
    62, 
    64, 
    65, 
    66, 
    67, 
    68, 
    69, 
    70, 
    71, 
    74, 
    75, 
    76, 
    77, 
    78, 
    79, 
    80, 
    81, 
    82, 
    85, 
    86, 
    87, 
    88, 
    89, 
    90, 
    91, 
    92, 
    95, 
    96, 
    97, 
    98, 
    99, 
    100, 
    102, 
    103, 
    104, 
    105, 
    106, 
    107, 
    108, 
    109, 
    112, 
    113, 
    114, 
    115, 
    116, 
    117, 
    118, 
    119, 
    120, 
    123, 
    124, 
    125, 
    126, 
    127, 
    128, 
    129, 
    130, 
    133, 
    134, 
    135, 
    136, 
    137, 
    138, 
    140, 
    141, 
    142, 
    143, 
    144, 
    145, 
    146, 
    147, 
    150, 
    151, 
    152, 
    153, 
    154, 
    155, 
    156, 
    157, 
    158, 
    161, 
    162, 
    163, 
    164, 
    165, 
    166, 
    167, 
    168, 
    171, 
    172, 
    173, 
    174, 
    175, 
    176, 
    177, 
    178, 
    179, 
    180, 
    181, 
    182, 
    183, 
    186, 
    187, 
    188, 
    189, 
    190, 
    191, 
    192, 
    193, 
    196, 
    197, 
    198, 
    199, 
    200, 
    201, 
    202, 
    203, 
    204, 
    207, 
    208, 
    209, 
    210, 
    211, 
    212, 
    213, 
    214, 
    215, 
    218, 
    219, 
    220, 
    221, 
    222, 
    223, 
    224, 
    225, 
    228, 
    229, 
    230, 
    231, 
    232, 
    233, 
    235, 
    236, 
    237, 
    238, 
    239, 
    240, 
    241, 
    242, 
    245, 
    246, 
    247, 
    248, 
    249, 
    250, 
    251, 
    252, 
    253, 
    256, 
    257, 
    258, 
    259, 
    260, 
    261, 
    262, 
    263, 
    266, 
    267, 
    268, 
    269, 
    270, 
    271, 
    273, 
    274, 
    275, 
    276, 
    277, 
    278, 
    279, 
    280, 
    283, 
    284, 
    285, 
    286, 
    287, 
    288, 
    289, 
    290, 
    291, 
    294, 
    295, 
    296, 
    297, 
    298, 
    299, 
    300, 
    301, 
    304, 
    305, 
    306, 
    307, 
    308, 
    309, 
    311, 
    312, 
    313, 
    314, 
    315, 
    316, 
    317, 
    318, 
    321, 
    322, 
    323, 
    324, 
    325, 
    326, 
    327, 
    328, 
    329, 
    332, 
    333, 
    334, 
    335, 
    336, 
    337, 
    338, 
    339, 
    342, 
    343, 
    344, 
    345, 
    346, 
    347, 
    349, 
    350, 
    351, 
    352, 
    353, 
    354, 
    355, 
    356, 
    359, 
    360, 
    361, 
    362, 
    363, 
    364, 
    365, 
    366, 
    367, 
    370, 
    371, 
    372, 
    373, 
    374, 
    375, 
    376, 
    377, 
    380, 
    381, 
    382, 
    383, 
    384, 
    385, 
    387, 
    388, 
    389, 
    390, 
    391, 
    392, 
    393, 
    394, 
    397, 
    398, 
    399, 
    400, 
    401, 
    402, 
    403, 
    404, 
    405, 
    408, 
    409, 
    410, 
    411, 
    412, 
    413, 
    414, 
    415, 
    418, 
    419, 
    420, 
    421, 
    422, 
    423, 
    425, 
    426, 
    427, 
    428, 
    429, 
    430, 
    431, 
    432, 
    435, 
    436, 
    437, 
    438, 
    439, 
    440, 
    441, 
    442, 
    443, 
    446, 
    447, 
    448, 
    449, 
    450, 
    451, 
    452, 
    453, 
    456, 
    457, 
    458, 
    459, 
    460, 
    461, 
    463, 
    464, 
    465, 
    466, 
    467, 
    468, 
    469, 
    470, 
    473, 
    474, 
    475, 
    476, 
    477, 
    478, 
    479, 
    480, 
    481, 
    484, 
    485, 
    486, 
    487, 
    488, 
    489, 
    490, 
    491, 
    494, 
    495, 
    496, 
    497, 
    498, 
    499, 
    500, 
    501, 
    502, 
    503, 
    504, 
    505, 
    506, 
    509, 
    510, 
    511, 
    512, 
    513, 
    514, 
    515, 
    516, 
    519, 
    520, 
    521, 
    522, 
    523, 
    524, 
    525, 
    526, 
    527, 
    530, 
    531, 
    532, 
    533, 
    534, 
    535, 
    536, 
    537, 
    538, 
    541, 
    542, 
    543, 
    544, 
    545, 
    546, 
    547, 
    548, 
    551, 
    552, 
    553, 
    554, 
    555, 
    556, 
    558, 
    559, 
    560, 
    561, 
    562, 
    563, 
    564, 
    565, 
    568, 
    569, 
    570, 
    571, 
    572, 
    573, 
    574, 
    575, 
    576, 
    579, 
    580, 
    581, 
    582, 
    583, 
    584, 
    585, 
    586, 
    589, 
    590, 
    591, 
    592, 
    593, 
    594, 
    596, 
    597, 
    598, 
    599, 
    600, 
    601, 
    602, 
    603, 
    606, 
    607, 
    608, 
    609, 
    610, 
    611, 
    612, 
    613, 
    614, 
    617, 
    618, 
    619, 
    620, 
    621, 
    622, 
    623, 
    624, 
    627, 
    628, 
    629, 
    630, 
    631, 
    632, 
    634, 
    635, 
    636, 
    637, 
    638, 
    639, 
    640, 
    641, 
    644, 
    645, 
    646, 
    647, 
    648, 
    649, 
    650, 
    651, 
    652, 
    655, 
    656, 
    657, 
    658, 
    659, 
    660, 
    661, 
    662, 
    665, 
    666, 
    667, 
    668, 
    669, 
    670, 
    671, 
    672, 
    673, 
    674, 
    675, 
    676, 
    677, 
    678, 
    679, 
    680
  ], 
  "heads": [[558, 0, 0]], 
  "attrs": {"mxnet_version": ["int", 10301]}
}